Koopman_Chaos/my_results/Lorenz63_model_diag_mat.pth (torch, 7500 bytes, 9 tensors)

k_matrix_raw f4 [144]
000000 14 4e 92 3f f4 32 18 ba 13 8f 1b 38 59 7b f7 ba
       1.1430078 -0.00058059325 3.7088128e-05 -0.0018881365
000010 e2 3b 0f 3b fc ed 21 ba 1d 0c e0 b9 21 d0 f7 b9
       0.0021855761 -0.0006177125 -0.00042733634 -0.0004726658
000020 0f 24 fe 39 2f a5 21 38 f2 fa ec 3a 41 3e e3 39
       0.0004847352 3.853923e-05 0.0018080159 0.00043343197
000030 8a 2e 10 b9 c5 ae 68 3f be 3f 1b 39 7a 28 4d 3a
       -0.00013750247 0.9089168 0.00014805698 0.0007826161
000040 51 db 87 3a c3 4c 59 ba 06 6e 2c b9 67 52 10 ba
       0.0010365044 -0.00082893315 -0.00016444185 -0.0005505443
000050 fd d3 56 39 29 05 d1 b8 2c 83 ce 3a 71 44 0e bb
       0.00020487602 -9.966858e-05 0.0015755645 -0.0021708275
000060 a7 60 9c 39 b9 dc 50 39 9f 25 d7 3d f5 5c d0 b9
       0.0002982665 0.00019918651 0.105052225 -0.0003974211
000070 6d fe 6c b9 c0 e4 29 b9 1c c0 a8 38 00 7c dd 38
       -0.00022601495 -0.00016202312 8.0466474e-05 0.00010561198
000080 a6 39 89 b8 b7 01 43 b9 59 16 06 b9 8a 9c 18 3a
       -6.543407e-05 -0.00018597288 -0.00012787561 0.0005821666
000090 11 4d b2 39 6c 3f 95 38 80 87 19 b9 02 64 79 3f
       0.00034008225 7.116687e-05 -0.00014641695 0.97418225
0000a0 0e 20 3e 3a ea 45 1e ba 6b b8 01 3a 5d 36 5a 3a
       0.00072527013 -0.00060376397 0.000494844 0.0008324141
0000b0 92 02 e9 b9 44 1a dc 39 7f 64 86 3a 9a 89 0b 39
       -0.00044443138 0.0004198124 0.0010253339 0.00013307334
0000c0 45 94 85 ba 50 da 8a 38 5d 08 1e b9 83 bd e8 3a
       -0.0010191282 6.621017e-05 -0.0001507117 0.0017756674
0000d0 df 02 8a 3f 8b 71 85 ba 54 c0 4e 39 b2 c2 90 39
       1.0782126 -0.0010180933 0.00019717339 0.0002761088
0000e0 a0 f5 a5 b9 60 1c 7c b9 dc 64 68 3a 57 b8 20 ba
       -0.00031654257 -0.00024043163 0.0008865127 -0.00061309844
0000f0 8a 01 c9 39 01 a0 16 ba e5 3c 64 ba d3 1b 91 3a
       0.00038338854 -0.00057458883 -0.0008706584 0.0011070914
000100 8a b1 0b 3a 13 0a 8a 3f 30 1a b5 39 1b c6 77 b9
       0.00053288846 1.0784324 0.00034542521 -0.00023629556
000110 43 ac 41 b8 e2 07 a0 3a 2a c0 25 3a 73 83 01 b9
       -4.6175217e-05 0.001220938 0.0006322885 -0.00012351367
000120 48 e0 6c 3a 88 0a 01 ba 70 41 16 b9 2d 2e 05 3a
       0.0009036106 -0.0004922529 -0.00014329492 0.0005080428
000130 2e 63 3d ba db 86 6b 3a cf 26 52 3f d7 81 bc ba
       -0.0007224557 0.00089846336 0.8209047 -0.0014381957
000140 8f de ed 39 7e 21 8e b8 08 1e 64 39 60 5d c3 b9
       0.00045369982 -6.777326e-05 0.00021754962 -0.00037262868
000150 11 a9 91 37 08 2b dc 38 6d 0d 8a b9 e0 81 7b ba
       1.7364075e-05 0.00010498433 -0.00026331414 -0.0009594243
000160 1e f0 d7 39 cc 3d aa 3a 47 20 0c 3a 9f 28 77 3f
       0.00041186897 0.0012988388 0.0005345386 0.9654636
000170 0d 90 45 ba c4 fd 9c 39 7b 27 c3 b9 a0 56 ce 38
       -0.0007536419 0.0002994371 -0.00037222714 9.8389806e-05
000180 27 1d e6 39 f8 87 88 39 e9 83 65 b9 6f 86 a7 ba
       0.0004389074 0.00026041246 -0.00021888282 -0.0012781153
000190 da 3e 4e b5 ae d0 8f ba da 1e be b9 ed d6 34 3a
       -7.683244e-07 -0.0010972226 -0.0003626261 0.00068984815
0001a0 f1 50 73 3f b5 cd fa 39 0d 43 a6 38 1e 4d 77 ba
       0.9504538 0.0004783698 7.927986e-05 -0.00094337936
0001b0 8f f6 21 39 6a a8 d5 39 95 ca 8a b6 92 63 28 b8
       0.00015446007 0.00040752004 -4.136304e-06 -4.0147053e-05
0001c0 61 54 a4 38 0b 16 bc ba d9 bb 5b b9 28 ff ba b9
       7.835846e-05 -0.0014349831 -0.00020955446 -0.0003566679
0001d0 95 42 b7 38 f9 b0 35 3f 45 94 de b8 80 14 14 3a
       8.738522e-05 0.70973164 -0.00010613402 0.00056488067
0001e0 54 c7 d4 b5 15 9f a3 b9 c0 71 32 39 ac 3e e4 b9
       -1.5853243e-06 -0.00031208308 0.00017017778 -0.00043534243
0001f0 71 9a a9 ba fc 8a ca 39 e1 46 8b 38 67 2c 7d 39
       -0.0012939704 0.00038631994 6.641239e-05 0.00024144501
000200 f6 c6 95 39 9c 2c a5 b7 36 18 47 3f 9f c4 85 ba
       0.00028567732 -1.9690306e-05 0.7777132 -0.0010205692
000210 9d 52 93 3a 7b 3c 86 38 e8 4a 01 ba f7 cc d4 b9
       0.0011239831 6.400883e-05 -0.00049321214 -0.00040588502
000220 18 0b b8 b8 8f f5 d2 3a 45 55 fd b9 e7 e5 ca b8
       -8.77587e-05 0.0016094911 -0.0004831945 -9.674933e-05
000230 a9 05 40 b9 10 5f c3 39 e1 77 aa ba 06 04 3b 3f
       -0.00018312655 0.00037264125 -0.0013005697 0.73053014

observable_net.0.weight f4 [24, 3]
000000 33 49 93 3d c3 e9 1a bc 3b bd 88 bd db f2 d7 bc
       0.07191696 -0.009455147 -0.06676718 -0.02636092
000010 6c 43 f0 3d 9b 55 60 be 99 66 f0 3e 48 e0 85 bc
       0.1173161 -0.21907656 0.46953276 -0.016342297
000020 0a 5e df be 5c 54 ae 3d fe 07 73 be 76 9c 10 3b
       -0.43626434 0.08512184 -0.23733518 0.0022065914
000030 78 eb 0a bf df fd 38 3e ca 48 33 3e d0 ac ca bd
       -0.54265547 0.18065594 0.17508236 -0.098962426
000040 47 88 33 bd 9a f5 47 3e 4a cf 8e be 91 f5 80 3e
       -0.043831136 0.19527283 -0.27892524 0.25187352
000050 a3 f1 aa 3e 97 c1 f7 bd f6 17 4b bd 31 a1 39 3d
       0.3338748 -0.12097471 -0.049583398 0.04531974
000060 a9 c3 25 3e 0b cf fe 3d 4d 39 bd be e9 39 c4 be
       0.1618792 0.12441834 -0.3695778 -0.38325432
000070 71 d3 8d 3e d2 28 02 3e fc 16 5b 3d 6e 94 cb 3d
       0.2770038 0.12710884 0.053488716 0.0994042
000080 8c d5 18 3c 01 f8 1b bd 0e b0 4f 3d d2 f3 13 bc
       0.009328257 -0.03807831 0.05070501 -0.009030299
000090 8e ff 4c be d0 ca d5 bd 22 70 a0 bd 2d e0 c4 b9
       -0.20019361 -0.10439074 -0.07833888 -0.00037551057
0000a0 b4 9c 94 bb b0 2f 06 bd d5 c6 66 3d 2b 82 0d 3d
       -0.004535282 -0.032760322 0.056341965 0.034547966
0000b0 4a 64 b8 bd da 42 e5 bd bd c9 d7 bc 15 5d 47 be
       -0.090035036 -0.111943915 -0.026341313 -0.19469102
0000c0 16 1f 8f 3c 19 c8 80 3b 09 a7 e5 bd 31 07 e0 bd
       0.017470878 0.0039301035 -0.112135 -0.10938872
0000d0 88 2a 05 be 5f 6a bf bc b6 88 0f 3e 9d ae 0b bd
       -0.13004506 -0.023366151 0.14016995 -0.03410207
0000e0 dd 45 4a 3c 43 60 40 3e f6 3a 97 bb 6e 8c 82 3d
       0.012345758 0.18786721 -0.004615183 0.06374441
0000f0 c9 4a 64 bc 70 04 ec 3d e6 ed 8b bd d6 89 0e 3d
       -0.013933846 0.11524284 -0.06832485 0.03479942
000100 0f 26 6c 3d 02 e0 ef bd 21 72 0c 3d 27 50 a8 3d
       0.057653483 -0.11712648 0.03428853 0.08218413
000110 68 87 23 be 5b f8 95 3d d5 e9 d1 bc ac 1b d3 bd
       -0.15969622 0.07322761 -0.025624195 -0.10308012

observable_net.0.bias f4 [24]
000000 b1 6a e4 3f 6f c4 c1 bf 0c 3f 03 c0 56 64 4c c0
       1.784506 -1.5138072 -2.050723 -3.193624
000010 b9 da 4d be 19 0b 1f bf ad 42 a6 bf c0 4e 1d c0
       -0.20102967 -0.6212631 -1.2989098 -2.4579315
000020 65 86 2b 3f e0 2b 93 be 99 9a ca bf 57 f7 2d bf
       0.67001945 -0.2874441 -1.582843 -0.67955536
000030 73 93 29 bf 37 74 b8 be 9b 79 04 bf 38 f3 17 3f
       -0.66240615 -0.36026165 -0.51748055 0.593555
000040 fc 7f 16 3d c2 1a 71 3e 7b 88 40 bf e0 5c 77 c0
       0.03674315 0.23545364 -0.7520825 -3.8650436
000050 14 43 20 3f a9 a9 56 bf 6c 14 60 bf 1f cd 74 bf
       0.62602353 -0.8385263 -0.8753116 -0.9562549

observable_net.2.weight f4 [12, 24]
000000 cb fb 1d 3e 6a 3b 5e 3c 0e d7 a5 be 6f d6 12 3e
       0.15428083 0.01356397 -0.32390636 0.14339612
000010 08 d7 c1 3d db d1 ac be ad ad 83 3e 34 4f 02 bc
       0.09464842 -0.33753857 0.25718442 -0.007953454
000020 16 18 d6 3d 78 5c 86 be 88 49 aa 3d 56 86 83 3d
       0.10453813 -0.26242423 0.08314806 0.06422107
000030 b5 65 d4 3d d6 d6 23 3e eb 09 de 3c e3 14 4a be
       0.103709616 0.15999922 0.027104339 -0.1973453
000040 91 d4 53 3c 70 d9 c5 3e 3b 79 63 bc 51 69 e6 3b
       0.012929098 0.38642454 -0.013883884 0.0070315977
000050 63 48 87 3c 4f f7 74 ba fa c7 b1 bd 9e 48 bc 3c
       0.016514009 -0.0009344713 -0.086807206 0.022983845
000060 b3 f7 6b 3e 33 5c 66 bd 7d 43 4b bd 11 35 bd 3d
       0.23043709 -0.05624027 -0.04962491 0.09238637
000070 c6 d5 a7 be 8f f4 e1 3d ae 0d 83 bd 07 ce a3 3d
       -0.32780284 0.11032974 -0.063990936 0.07998281
000080 c4 4e a3 3d 42 e5 17 3f cf 97 cc be 32 51 79 bc
       0.07974008 0.59334195 -0.3995957 -0.015217112
000090 a0 d6 b6 3e 0e 4d ea 3d f3 0b d6 bc 43 be 88 be
       0.3571062 0.11440478 -0.026128745 -0.26707658
0000a0 4f 26 05 3f d7 7c c4 3d bb 7a c0 be eb df 8d be
       0.5201158 0.09594124 -0.37593636 -0.27709898
0000b0 75 62 c3 be 03 50 88 bb 63 44 4c 3d 79 5d 89 3d
       -0.38161054 -0.0041599288 0.049869906 0.067072816
0000c0 c0 b1 d3 3c 06 e7 48 3e 80 6b 60 bf de d2 03 be
       0.025841594 0.19619378 -0.8766403 -0.12873408
0000d0 2b fc 21 bd 14 73 de bc bf 04 0f 3c c4 26 f6 3d
       -0.039547127 -0.027154483 0.008729159 0.12019113
0000e0 95 bf a4 3d de b0 03 3d 03 36 f6 3c 6d 97 39 bc
       0.08044354 0.032151096 0.030055052 -0.011327607
0000f0 e2 4d f4 bc d4 95 fb be 62 ac 08 3d 4b fe a1 3c
       -0.029822294 -0.49137747 0.033367522 0.019774577
000100 2d 6c aa be b2 50 80 3d 08 30 a8 3c 81 fb 1b be
       -0.33285657 0.062653914 0.020530716 -0.1523266
000110 19 32 15 be 3b 97 eb 3d 67 64 52 bd d0 5b 89 3e
       -0.14569892 0.11503454 -0.051365282 0.2682786
000120 d6 19 29 3e f4 73 b5 3d da 40 08 3f 6d d7 c5 3d
       0.16513762 0.08860007 0.53223956 0.0966023
000130 e6 35 7c 3e 2e 5b fd be 66 16 59 3d 79 3a 25 be
       0.24629936 -0.49483627 0.052999876 -0.16135587
000140 74 23 ad 3e f4 18 9c be 29 0b 54 3c eb 6b e8 bd
       0.3381611 -0.30487788 0.012942114 -0.11348709
000150 3d e9 c4 bb 8f 0e 09 3e 02 d5 7c 3d b6 0c b2 3e
       -0.0060092495 0.1338446 0.061726578 0.34775323
000160 fe ae fd 3e 23 65 8c 3e 48 d3 6b 3d 19 a5 a6 3d
       0.4954757 0.2742091 0.05757454 0.08136959
000170 32 77 06 3d 60 c8 3d bd 83 f9 00 3d 36 2c 32 3c
       0.032828517 -0.04633367 0.031487953 0.0108747985
000180 65 fb e4 3d cf 52 a5 be 30 9b 6c 3e 7e 0a 34 3e
       0.11180762 -0.3228974 0.23106074 0.17582127
000190 07 88 48 3e 0b 62 71 be 6e 9a a1 3e 82 6b 8f be
       0.1958314 -0.23572557 0.31563133 -0.2801171
0001a0 2c 09 11 3e e7 e5 f3 be 54 10 09 3e 3c f6 04 be
       0.14163655 -0.4763634 0.13385135 -0.12984556
0001b0 76 20 82 be 47 8d 89 bd c9 98 01 be 5b 85 a8 3c
       -0.2541539 -0.067164 -0.12655939 0.020571401
0001c0 00 b2 84 be 99 54 3e 3e 6a e2 86 be 5e a9 85 3e
       -0.25917053 0.18586959 -0.26344615 0.2610578
0001d0 33 1a 2f 3e e9 1c 05 3d 96 ca 95 3b 0b 65 b4 3a
       0.17099838 0.032498274 0.0045712693 0.0013763023
0001e0 88 88 40 3e f5 99 7a bd 14 44 f1 bd 0c e8 58 bd
       0.18802083 -0.06118198 -0.11780563 -0.052955672
0001f0 8a c0 4b be 83 14 f2 3c 3d 23 67 bd 45 d2 98 3e
       -0.19897667 0.029550796 -0.05643009 0.29847923
000200 6f 0f 7d 3d 4f a0 de 3e 75 f0 c8 bd 36 bd 31 3d
       0.061782297 0.4348168 -0.098114885 0.043393336
000210 dc e3 ec 3d ba 55 fa 3d a3 41 d5 3d b7 06 d6 be
       0.11566898 0.12223382 0.1041291 -0.41801998
000220 05 fc 04 3e 44 8b 5a be d1 06 24 be 6f 67 bd bd
       0.12986763 -0.21342188 -0.16018225 -0.09248244
000230 4c d8 e5 3d 58 7c 62 bc 01 e3 8b bb 25 ed 26 bd
       0.11222896 -0.013823591 -0.0042690043 -0.040753502
000240 cb 6f 2d 3f 88 d1 15 bf fb 3e 7e 3f 15 a3 4a 3e
       0.6774871 -0.58522844 0.9931485 0.19788773
000250 6a c9 54 bd c4 fa c3 3d 58 7f 51 3e 72 52 cf be
       -0.051949896 0.09569314 0.20458734 -0.40492588
000260 19 0b 9c bc 41 63 82 be e2 52 b7 3d 60 20 f1 3c
       -0.01904826 -0.2546635 0.089513555 0.029434383
000270 04 fa 45 bd 84 56 12 3f f8 0a e5 3d 9d 49 17 bf
       -0.048334137 0.5716326 0.11183733 -0.590967
000280 d9 09 01 be de 57 86 3e 04 18 60 bf 1d b9 c4 3c
       -0.12601413 0.26238912 -0.87536645 0.02401405
000290 97 2e bf bd d4 3b 44 3c 72 bb e4 3d 1c 49 b8 3e
       -0.09335058 0.011977155 0.11168565 0.35993278
0002a0 b0 fc 0e 3e 3b 7f c9 bb 6c 55 19 bf a9 3b d0 bd
       0.1396358 -0.0061492003 -0.5989597 -0.10167629
0002b0 a0 a6 a0 3e 1e 2b d6 3d 40 3a 7d be c3 94 c7 3d
       0.31377125 0.10457443 -0.24729252 0.09745171
0002c0 85 61 84 be cc b0 e9 3b 0f 19 35 3d 68 12 bb 3c
       -0.25855651 0.0071316715 0.04421335 0.022835925
0002d0 29 df d8 bc d5 c1 b0 3d f7 c8 c8 bd 6c 7c 78 3e
       -0.026473599 0.086307205 -0.09803956 0.24266213
0002e0 3e d5 f2 3d 9e c8 21 be 59 fb b0 b9 36 db 01 3d
       0.11857079 -0.15799186 -0.00033756605 0.031703196
0002f0 7c 3c 80 3e 32 47 48 bc 16 f6 22 3d 7b f8 4d 3e
       0.25046146 -0.012224006 0.039785467 0.20114319
000300 ed 8e 85 3d a3 8f 11 be 97 30 84 bc f4 7e 05 be
       0.065214016 -0.1421495 -0.01613645 -0.1303671
000310 77 40 61 be 02 25 ae 3e 04 cc aa be 71 94 98 bb
       -0.21997248 0.3401261 -0.33358777 -0.0046563675
000320 1d 54 ce bd 42 76 11 3f be 54 17 bd cb 71 1e bb
       -0.10074637 0.5682107 -0.03694605 -0.0024176713
000330 61 7a 4e 3e 58 6c 0f 3e 3e 2c 5a bd ef 43 e2 3c
       0.20163871 0.14006174 -0.05326485 0.027620284
000340 7f 2f db 3e 7d 14 a9 bd 9e 15 18 3f 7d 8f 88 bd
       0.42809674 -0.08255861 0.59407985 -0.06667993
000350 4b 3b 3c be 12 77 90 bd c0 df 3b 3d 46 fb 05 bd
       -0.18381993 -0.07053961 0.04586768 -0.032710336
000360 df 4f b7 be ac 22 a6 3d 4b 80 63 3f 03 fe 27 be
       -0.35803124 0.08112082 0.88867635 -0.16405492
000370 57 9b 5b bd 7d f3 17 be 3f 2f f6 bc 88 27 dd 3d
       -0.05361494 -0.14838977 -0.030051826 0.107985556
000380 40 28 09 bd 25 fa 41 3e 5b d8 80 bd b3 8a 40 bc
       -0.03348565 0.18943079 -0.062912665 -0.0117518185
000390 41 00 c1 bb ed 76 07 bd 27 c4 a9 bc 8b 82 12 3d
       -0.005889923 -0.0330724 -0.020723416 0.035769027
0003a0 95 11 60 3e a6 71 dc 3d 34 95 00 3e 4a f5 72 3c
       0.21881707 0.10763864 0.12556916 0.014828989
0003b0 4d a3 c8 be c0 c5 58 3c b5 99 57 3d 89 40 53 be
       -0.3918709 0.013230741 0.05263682 -0.20630087
0003c0 94 de 3e 3e 24 e6 5b 3e 74 b8 ec bd 1d 4e fb 3a
       0.18639594 0.2147451 -0.11558619 0.001917306
0003d0 19 26 69 bd 48 43 87 3e d0 22 e8 bd 6f 78 e0 3d
       -0.0569211 0.2641852 -0.11334765 0.10960471
0003e0 f2 bb 19 be 36 13 89 3d a9 de 55 be a9 48 3f bd
       -0.15013102 0.06693117 -0.2088572 -0.046700153
0003f0 16 e9 04 3e f8 5d 63 3e 1f b1 f2 bb 45 03 69 3e
       0.1297954 0.22203815 -0.0074063684 0.22755153

observable_net.2.bias f4 [12]
000000 0b 2c 93 be 6d c3 de be 20 64 67 3d a3 5c 0b 3f
       -0.2874454 -0.43508473 0.05649197 0.5443823
000010 91 c3 40 bf 94 29 f0 bd dd 07 8a bf 6b 91 0e bd
       -0.7529841 -0.117266804 -1.078365 -0.03480665
000020 53 40 58 3d 33 56 11 3f d4 69 66 be 84 fb bf 3e
       0.05279572 0.56772155 -0.22501308 0.3749658

recovery_net.0.weight f4 [24, 12]
000000 12 6c 83 3f ed 41 cd be b7 4c f4 be d4 48 b1 bf
       1.0267355 -0.4008936 -0.4771478 -1.385035
000010 ba e2 1f bf 1e 65 27 3f dc 85 e7 be 5a 61 87 bf
       -0.6245533 0.6538867 -0.45219314 -1.0576584
000020 df aa 80 be fe 74 84 3f 17 33 83 3e 98 b9 06 bf
       -0.25130364 1.0348203 0.25624916 -0.52626944
000030 a9 ea 8b 3f 28 8a 24 3f 97 40 53 3d b5 7d d9 bf
       1.0930988 0.6427331 0.05157527 -1.6991488
000040 df 3a 52 bb ed 99 56 bf 01 e7 25 bf 93 e4 96 3e
       -0.0032078547 -0.8382862 -0.6480561 0.29471263
000050 4e b6 35 3f c9 0e 9b 3e 16 65 03 3f 2d 6d 65 3f
       0.709813 0.30284718 0.5132612 0.89619714
000060 e2 5c db 3f b5 b1 ff be 05 43 cf 3d 49 85 01 bf
       1.713772 -0.49940267 0.10120205 -0.50594
000070 08 90 75 3e cc 29 e7 be e4 45 87 3e 7d 36 29 3e
       0.23980725 -0.45149076 0.2642051 0.16524692
000080 ab 41 1b 3f 96 48 9b be a9 6d 24 40 99 26 2c bf
       0.60647076 -0.30328816 2.5691931 -0.67246395
000090 87 de 4f 3f d9 e6 db bf 90 2a 49 3e c6 0c 63 bf
       0.81198925 -1.7179824 0.19645143 -0.88691366
0000a0 73 be 02 40 47 67 ac 3c 01 d2 1f 3f b0 00 5f bd
       2.042874 0.02104534 0.62429816 -0.054444015
0000b0 03 85 c1 be 01 7c 9b 3f 41 07 29 40 31 55 a9 3f
       -0.37796792 1.2147218 2.6410677 1.3229123
0000c0 d4 12 61 3e dc 0d 04 c0 f8 04 ba be ed 4d 80 bf
       0.21979839 -2.063346 -0.36331916 -1.0023781
0000d0 d9 b9 80 3f d2 b1 1e 3e 8f 03 ad bf 9c 13 a1 bf
       1.0056716 0.1549752 -1.3516711 -1.2584109
0000e0 75 b3 f6 3e 7a 9c 60 bf 21 39 15 40 c9 1e a1 be
       0.4818379 -0.87738764 2.3316119 -0.314688
0000f0 a1 4f 94 bf 8f 69 7e 3f 43 06 a9 be ac b2 0e 3f
       -1.1586801 0.9937982 -0.3301259 0.5574138
000100 aa 79 ff 3e 41 7f 19 bf c0 85 63 be fa 0b 1e 3f
       0.4989751 -0.599598 -0.2221899 0.61737025
000110 cc fc 1a be 1c 26 06 bc 73 27 49 40 8c 5e 58 bf
       -0.15135497 -0.008187797 3.1430328 -0.8451927
000120 fc 5c 43 3e 28 c0 8d 3f a2 60 6b 3e cf 11 03 bd
       0.1907844 1.1074266 0.22986081 -0.031999405
000130 32 76 10 bf e1 27 e5 bf b0 c3 58 3f e4 4f b4 3f
       -0.5643035 -1.7902795 0.84673595 1.4086881
000140 c3 68 a7 3d e9 8d 67 be 25 e9 ef bf 7c 31 09 c0
       0.081742786 -0.22612728 -1.8743025 -2.1436453
000150 01 ba 5d be 6e 2e dd 3d 8a d1 06 bf 50 ad 51 3f
       -0.21652986 0.107998714 -0.5266348 0.8190508
000160 16 10 74 bf 8b cb 0b bf c9 11 3d 3e 41 a2 90 3f
       -0.95337045 -0.54607457 0.18463816 1.1299516
000170 77 2e 84 be 11 cf 8f be 0d 76 09 c0 8c 59 f3 bf
       -0.258167 -0.28087667 -2.1478302 -1.9011703
000180 0a 27 06 bf 44 ce 11 3f 22 e8 38 3e 39 61 89 3f
       -0.5240332 0.5695536 0.18057302 1.0732795
000190 10 4d 83 be c7 47 04 bf 72 c0 f5 3d 1e a4 2a 3c
       -0.25644732 -0.51672024 0.11999597 0.010415105
0001a0 4a 75 c0 3e 0e 3a 36 bf cd 4f f7 bf e7 b1 3f c0
       0.37589484 -0.71182334 -1.9321228 -2.9952333
0001b0 67 f7 86 3e 23 d2 cb 3e a9 16 08 bf fb 41 ea 3e
       0.26360628 0.3980876 -0.53159577 0.45753464
0001c0 79 4b 3b 3f a0 8a 53 3f 8c fa a5 3f df 34 93 3f
       0.7316204 0.826334 1.2967086 1.150051
0001d0 74 92 48 bd 38 a3 91 3f a8 55 b0 3e d1 6b d2 3f
       -0.048967794 1.1377935 0.3444035 1.6439153
0001e0 21 77 ce bd 7c d5 fd bf c4 bd 56 bc 2a 42 96 3f
       -0.10081316 -1.9830775 -0.013106767 1.1738942
0001f0 db 9c 8e 3e 92 8d d2 3f 58 1e 0d 3e a7 9e 05 bf
       0.27854046 1.6449454 0.13781106 -0.5219521
000200 d2 73 01 3f 00 57 d7 be 54 a5 04 bf fc 61 6b c0
       0.5056735 -0.42058563 -0.5181477 -3.6778555
000210 ec 96 46 c0 6f a6 a4 3f e1 df b9 be d9 5d 8c 3f
       -3.1029615 1.2863292 -0.3630362 1.096614
000220 bb ec c0 3f 61 d0 dc be 77 16 33 3f 58 04 5b 3f
       1.5072244 -0.4312773 0.69956154 0.85553503
000230 ab 02 34 3e c7 e9 55 3f d4 2b 9f bf 14 4e 95 bf
       0.17579143 0.8355984 -1.243525 -1.1664453
000240 6d e9 4f bf 7b e9 fb bd 00 47 55 bf 31 48 77 3f
       -0.81215554 -0.12300392 -0.8331146 0.9659453
000250 a5 86 00 bf cb 0a a2 3e e9 63 aa be c8 73 2d be
       -0.5020545 0.3164886 -0.3327935 -0.16938698
000260 f6 1a 01 bf 58 f2 17 bf b7 18 ed bf 89 14 67 c0
       -0.50431764 -0.5935416 -1.8523167 -3.6106284
000270 79 71 39 bf 94 36 8c 3f d0 13 b1 3e 78 d3 a0 3f
       -0.7243877 1.0954156 0.34585428 1.2564535
000280 ec 23 a1 bf c4 91 85 3f 6e 39 cc be 32 22 9a 3e
       -1.2589087 1.0435109 -0.39887565 0.30104214
000290 b1 07 ee 3e d4 0e 52 3f 4b 25 e6 bf 27 ac e8 bf
       0.46490243 0.82053876 -1.7980131 -1.8177537
0002a0 ae 47 a9 3f e5 4c 1e bf bf 04 7b bf 2c 17 09 bf
       1.3225 -0.6183608 -0.98054117 -0.5355098
0002b0 9d 8b 10 3e bf 35 a3 3e fb 72 e0 3d 44 e7 dc 3f
       0.14115758 0.31876943 0.10959431 1.7258077
0002c0 3d 0c 30 bc 72 98 4d bf 3e 2d f5 bf 23 e6 0b 40
       -0.010745105 -0.8031074 -1.9154432 2.1859214
0002d0 54 25 b7 3f 74 45 7f 3f 8c 2a 9c bc e1 8f b4 be
       1.4308267 0.9971535 -0.019063257 -0.3526602
0002e0 54 ae 15 be a4 f1 31 bf 3a 59 52 bf 9e fd 04 3e
       -0.14617282 -0.6950934 -0.821674 0.12987372
0002f0 3f 11 41 3e d3 62 66 be ec 01 14 40 39 26 ea 3e
       0.18854235 -0.22498636 2.3126173 0.45732287
000300 3f 09 03 bf ff b1 f0 be 8c 1a d8 3e e6 78 a3 be
       -0.51185983 -0.470108 0.42207754 -0.31928176
000310 57 1d 30 c0 2f 2a 7b be fb f9 26 3f 03 2e 9f 3e
       -2.7517908 -0.2452781 0.6522519 0.31089792
000320 72 37 4c bf e4 59 3e 3e 39 78 1a c0 12 d8 d6 bf
       -0.797721 0.18588978 -2.4135878 -1.678469
000330 ca d4 fd bd 72 38 00 40 0f 18 09 bf 3d 16 8b 3f
       -0.12394102 2.0034451 -0.53552336 1.0866162
000340 cc c7 0e be f9 01 45 bf 20 ad 29 bf 3f 36 4b 3f
       -0.13943404 -0.76956135 -0.6627979 0.7937965
000350 fe e6 65 be f0 ba 39 3f bc 37 15 40 57 3f 02 c0
       -0.22451398 0.7255087 2.3315268 -2.035116
000360 63 ac b7 3e 25 38 8f 3f 5e ec f0 3d ee 82 9e bf
       0.35873708 1.1189009 0.117638335 -1.2383707
000370 91 2b ac be 5e 71 0d 3f eb c5 d8 3f 7e 1d d8 be
       -0.3362699 0.5525111 1.69354 -0.4221
000380 6e 25 54 bf 81 e9 88 3f 13 cd 41 bf 38 51 3c be
       -0.82869613 1.069626 -0.75703543 -0.18390357
000390 3a e3 21 bf 81 ff 99 3e f4 74 d9 3c 10 4a 9d 3f
       -0.63237345 0.30077747 0.026545025 1.2288227
0003a0 5e 93 50 3f 45 e8 95 be 42 41 32 be 6f 87 09 3f
       0.81474864 -0.2927877 -0.17407706 0.5372228
0003b0 b1 c3 85 3e 87 90 4a 3f 81 d6 1a 40 a2 fe e7 bf
       0.26125863 0.7912678 2.4193423 -1.8124583
0003c0 b5 47 e9 bf 3f 19 dc be 70 61 ca 3e 20 7e 97 3f
       -1.8225008 -0.4298801 0.39527464 1.1835365
0003d0 2e 21 83 3f 2e 12 b5 be 48 f9 e9 3e bb 35 ab 3f
       1.0244501 -0.35365433 0.45698 1.3375772
0003e0 7b 86 b5 3e d9 f8 0b 3f ec ff df 3f b6 17 90 bf
       0.35454163 0.54676586 1.7499976 -1.1257236
0003f0 dc af 29 3f dc 5c 8e 3e 93 8a d2 be 20 28 c3 bf
       0.66283965 0.2780522 -0.4112135 -1.524662

recovery_net.0.bias f4 [24]
000000 7c 1a d2 3f 7b 92 b7 3f 03 52 ab 3e e0 07 12 3e
       1.6414332 1.4341577 0.33461007 0.14260817
000010 09 0a bf 3f d3 e5 73 be 7a 15 64 3f fb b4 ca 3f
       1.4924937 -0.2381814 0.8909527 1.5836481
000020 6c f2 5f 3f bd a9 80 bf d4 6d 77 3f 49 78 fb 3e
       0.8747928 -1.00518 0.9665196 0.49115208
000030 99 f8 69 3f 4c 60 d9 3c 61 cd 1c c0 de d4 6b be
       0.91394955 0.026535176 -2.4500353 -0.23030421
000040 1d de 23 3f fc 6b 97 3e 6e 83 cc 3f 7c c0 86 3e
       0.6401079 0.29574573 1.5977609 0.2631873
000050 6f 36 78 be 70 21 93 3f e6 0f b5 3f 59 20 a9 3f
       -0.24239515 1.1494579 1.4145477 1.3212997

recovery_net.2.weight f4 [3, 24]
000000 7a 34 01 3f 52 1c 08 bf f2 63 a0 3c f2 09 2d be
       0.504707 -0.53168213 0.019578908 -0.16898325
000010 83 3f e7 3e 0f 74 37 3e 21 5d b1 be 08 c8 70 be
       0.45165643 0.17915367 -0.34641364 -0.23513806
000020 60 ca 15 bf a0 ed bd 3e 4d ee ac 3e 2e 40 71 3e
       -0.58511925 0.37095356 0.3377556 0.23559639
000030 26 d0 08 3e e1 f9 40 3e 5e 38 c2 3e f3 08 78 bf
       0.13360652 0.18845321 0.3793363 -0.96888655
000040 62 63 55 be 95 86 a7 bd 6d 4c 72 bb 28 6a dc be
       -0.20838693 -0.08179966 -0.0036971823 -0.4304974
000050 ec 8c e8 3e 58 86 b6 bf d1 12 c5 3f 2c c8 df bd
       0.45420015 -1.4259748 1.5396367 -0.10926852
000060 8b 46 f1 3e 62 0f 9b bd 45 7c 6a bf 9d 35 c0 bf
       0.47124133 -0.075712934 -0.9159587 -1.5016361
000070 6d d6 72 bf 43 80 8b 3f 9a b9 11 bf 7f 83 a9 bf
       -0.9485844 1.0898517 -0.5692383 -1.3243254
000080 21 77 d3 bf 52 0a ee be 12 50 f4 3f 5d fe 9e be
       -1.652073 -0.4649225 1.9086936 -0.3105344
000090 cd c8 ab 3f 54 02 da 3f d8 63 34 40 8e 86 11 bf
       1.3420655 1.703196 2.818594 -0.5684594
0000a0 a5 57 c1 bf 12 b0 a2 bf 0d 7e 3e 3f 10 d1 95 bf
       -1.5104872 -1.2709982 0.7441109 -1.1704426
0000b0 ed a0 d2 3f e7 a2 c2 3e 3d 49 d1 3f 81 0e cf be
       1.6455361 0.3801491 1.6350476 -0.40440753
0000c0 c7 2d ba 3f cf f2 bd 3f d4 83 48 3f 56 76 8a 3e
       1.454522 1.4839724 0.78326154 0.27043408
0000d0 37 d7 bb 3f 4f 9c be bf 52 82 b3 3f 95 0a da be
       1.4675053 -1.4891452 1.4024146 -0.42586198
0000e0 a9 53 52 bf 23 09 7a bf 42 d0 71 3f ad 14 8e 3f
       -0.82158905 -0.9767019 0.944584 1.110006
0000f0 de 16 84 bf ca c9 b9 be 71 e1 85 bf f6 5b 31 3f
       -1.0319479 -0.36286765 -1.0459424 0.69280946
000100 bf ab 0d bf 76 4e 76 3e 0f 90 88 3f a5 87 bc bf
       -0.5534019 0.24053368 1.0668963 -1.4728895
000110 15 61 99 3f 69 c4 24 3f 33 93 9a 3f 90 16 c6 3f
       1.1982752 0.643622 1.2076172 1.5475636

recovery_net.2.bias f4 [3]
000000 9b 54 92 3e b3 d1 15 3f 24 8c 93 3f
       0.28580174 0.585231 1.1527143
