Koopman_Chaos/my_results/trained_koopman_model2.pth (torch, 7423 bytes, 9 tensors)

k_matrix_raw f4 [144]
0	0x3e7347a6	0.237578
1	0x3ccc92fe	0.024972435
2	0x3cc6d2d3	0.02427045
3	0xbec68e28	-0.38780332
4	0x3d47d32e	0.04878538
5	0x3dd6e78b	0.10493382
6	0x3ea2d157	0.3180034
7	0x3d894cb7	0.06704085
8	0xbd86b29a	-0.06577034
9	0xbda486c7	-0.08033519
10	0xbdf17a23	-0.11790874
11	0xbe16b14c	-0.14716071
12	0x3dece11a	0.11566372
13	0x3f35f603	0.7107851
14	0xbd3426ca	-0.043982305
15	0x3e0502e1	0.1298938
16	0xbdf55434	-0.11978951
17	0x3d889919	0.06669826
18	0x3d3f4792	0.046699114
19	0xbe3598a4	-0.17734009
20	0xbd99ee34	-0.07516137
21	0x3d24a254	0.04019387
22	0x3db198e9	0.086717434
23	0x3df93110	0.12167561
24	0x3d22d4dd	0.039753783
25	0x3e1169ca	0.14200512
26	0x3ef97137	0.4871919
27	0x3da0b678	0.07847303
28	0xbdf9c89e	-0.12196468
29	0xbe11b0aa	-0.14227548
30	0x3eaf6faa	0.3426488
31	0xbdf1024f	-0.117680185
32	0x3e88cac6	0.26717204
33	0x3d874112	0.06604208
34	0x3cd9ed7c	0.0266025
35	0xbe217dfd	-0.15770717
36	0xbf0f667d	-0.5601576
37	0x3eb2e12f	0.34937426
38	0x3e753020	0.2394414
39	0x3ec37bb5	0.38180318
40	0x3ed03f3d	0.40673247
41	0x3c634045	0.0138703035
42	0x3e2b69d3	0.16739587
43	0x3c1dd513	0.00963332
44	0x3de8340e	0.11338054
45	0xbd86070d	-0.065443136
46	0xbdbcacae	-0.092126235
47	0xbe92c72d	-0.28667584
48	0x3d66edf7	0.056379285
49	0xbe7b02e8	-0.24512827
50	0x3d693f18	0.056944937
51	0x3e85fc1e	0.26168913
52	0x3f2dbd4d	0.67866975
53	0x3ec3fc54	0.3827845
54	0x3e59bed0	0.21264195
55	0x3da2124d	0.07913647
56	0x3d85da84	0.06535819
57	0x3e3084da	0.17238179
58	0x3ce6ec02	0.02818871
59	0x3dc46ef6	0.095914766
60	0x3dff088c	0.12452802
61	0x3e1cb0ef	0.1530187
62	0xbe146a7f	-0.1449375
63	0xbe230eb4	-0.15923578
64	0x3ea7c8be	0.32770342
65	0x3f0416aa	0.5159708
66	0xbe7193b3	-0.23591499
67	0x3c2545e0	0.01008746
68	0xbd3d4442	-0.046207674
69	0x3e56fce2	0.20994905
70	0x3c8a6644	0.016894467
71	0xbdd6cb5a	-0.10488005
72	0x3e93232b	0.2873777
73	0xbe0c2ac3	-0.13688187
74	0x3e85ee1e	0.26158231
75	0x3d7658b5	0.06014319
76	0x3e3f38ef	0.18674062
77	0xbe8004e1	-0.25003722
78	0x3f007e81	0.5019303
79	0x3d918b6e	0.07106672
80	0xbe962354	-0.29323828
81	0x3db102a7	0.08643084
82	0x3d98549a	0.074380115
83	0x3e30c329	0.17261948
84	0x3e260a18	0.16214788
85	0xbc965c98	-0.018354699
86	0x3e0c0b0d	0.1367609
87	0x3e4a75dc	0.19771522
88	0xbd2a8799	-0.041633222
89	0xbe176206	-0.14783487
90	0xbc7f3c79	-0.015578383
91	0x3f80e232	1.0069029
92	0xbd1bfadd	-0.03808104
93	0xbd51e2f8	-0.051241845
94	0x3c25d166	0.010120725
95	0x3db52204	0.088443786
96	0xbe825dcd	-0.2546219
97	0x3e301c6f	0.17198347
98	0x3e726c47	0.23674117
99	0xbec90905	-0.39264694
100	0x3d01b67d	0.031668175
101	0xbd000147	-0.03125122
102	0xbc0526ca	-0.008126924
103	0xbd3b93ea	-0.04579536
104	0x3f5955bb	0.8489644
105	0x3d1ae4c0	0.03781581
106	0xbdd2baf1	-0.102895625
107	0x3d6442ee	0.05572789
108	0xbe0eeb0a	-0.13956848
109	0x3d62e14e	0.05539065
110	0xbdaff9f5	-0.085925974
111	0xbd785072	-0.060623594
112	0xbd8e0d5f	-0.06936144
113	0x3dae31df	0.08505606
114	0x3de684a9	0.11255772
115	0xbae92e26	-0.0017790243
116	0x3d780cfd	0.06055926
117	0x3f81d172	1.0142043
118	0xbe2a28cd	-0.16617127
119	0xbd81fe15	-0.063472904
120	0xbe273988	-0.1633054
121	0x3dbea038	0.09307903
122	0x3d2b1145	0.041764516
123	0xbe2c01db	-0.16797583
124	0x3db709e8	0.08937436
125	0x3cf68690	0.030093461
126	0x3d80e3c6	0.06293444
127	0x3b4ad6ae	0.0030950713
128	0x3d258a7d	0.040415276
129	0xbb962d17	-0.004583012
130	0x3f76c821	0.9639912
131	0xbda5e682	-0.081006065
132	0xbed1a1b9	-0.40943697
133	0x3ebb9d1e	0.36643308
134	0xbd8b6e36	-0.068081304
135	0xbe503699	-0.20333327
136	0x3da607bc	0.08106944
137	0xbb339e40	-0.0027407557
138	0x3e4153b4	0.18879586
139	0xbd278210	-0.04089552
140	0xbdbeee35	-0.09322778
141	0xbcb95a11	-0.022625955
142	0xbda24209	-0.079227515
143	0x3f102a43	0.56314486

observable_net.0.weight f4 [24, 3]
0	0x3e90cd8d	0.28281823
1	0xbc5c8a38	-0.013460688
2	0xbe5896fc	-0.21151346
3	0xbddea967	-0.10872155
4	0xbe4562cf	-0.19275974
5	0xbd143070	-0.036179006
6	0xbebbe6ef	-0.36699626
7	0xbddc9f6f	-0.10772597
8	0x3dd9fd25	0.106439866
9	0xbdbdf9a2	-0.09276129
10	0xbe2e3cb5	-0.17015345
11	0xbc8bd29f	-0.017068205
12	0x3db930f1	0.09042538
13	0xbdf88a1c	-0.12135717
14	0x3d7f97a2	0.062400468
15	0x3e76d76d	0.24105616
16	0x3ddfb831	0.109238036
17	0x3dbe5277	0.09293073
18	0xbe131184	-0.1436215
19	0xbe2b5e78	-0.16735256
20	0x3d987ceb	0.07445701
21	0x3f35beb3	0.7099411
22	0x3e68897d	0.22708698
23	0xbe502582	-0.20326808
24	0x3d114d75	0.03547426
25	0xbdb36c87	-0.08760934
26	0xbe0f9329	-0.14020981
27	0xbef6a713	-0.48174343
28	0x3df8e5cc	0.12153205
29	0xbe524c39	-0.20536889
30	0x3df40914	0.11915794
31	0xbe021a7d	-0.12705417
32	0xbe97bd8a	-0.29636794
33	0xbe82e875	-0.25567976
34	0xbe9047bf	-0.28179738
35	0xbe63b541	-0.22237112
36	0xbe6803bc	-0.22657675
37	0x3d918807	0.07106023
38	0xbc144aa2	-0.009050997
39	0x3c03ae5f	0.008037179
40	0xbe09b8df	-0.13449429
41	0x3c8a11fd	0.01685428
42	0xbdb31fe7	-0.08746319
43	0xbe26f216	-0.16303286
44	0x3c883dc8	0.016631022
45	0x3ed84fef	0.42248484
46	0x3d8dbfeb	0.06921371
47	0xbe46f9ea	-0.19431272
48	0x3de4fa91	0.11180604
49	0x3de5bb87	0.112174086
50	0xbd5f7fdc	-0.054565296
51	0xbe181996	-0.1485351
52	0x3e26fd84	0.16307646
53	0x3eb879d3	0.36030445
54	0x3e9e5a25	0.3092815
55	0xbdd2f1fa	-0.103000596
56	0x3deb0850	0.11476195
57	0xbeac7f1e	-0.33690733
58	0x3e594b8c	0.21220225
59	0x3d8e7ef8	0.06957811
60	0x3dcdc35b	0.10047027
61	0x3e153b61	0.14573433
62	0xbe07c84f	-0.13260005
63	0x3dca8add	0.09889767
64	0x3db3a74e	0.08772145
65	0x3d324809	0.04352573
66	0xbe3ca63f	-0.18422793
67	0xbe04855a	-0.12941495
68	0x3d8f2893	0.06990161
69	0x3e688a7e	0.2270908
70	0x3d41682a	0.04721848
71	0x3d4916f8	0.04909417

observable_net.0.bias f4 [24]
0	0xbf2330d8	-0.63746405
1	0xbeb202b7	-0.34767696
2	0x3f8579c5	1.0427786
3	0x3ed50d71	0.41611817
4	0xbfe4b092	-1.7866385
5	0xc0409744	-3.0092325
6	0xc0d025fa	-6.504636
7	0xc01126c5	-2.2679913
8	0x403cbbf2	2.9489713
9	0x3f6a6ba0	0.9157047
10	0x3fd0d434	1.6314759
11	0xc08aa92f	-4.3331523
12	0xbfc4e964	-1.5383725
13	0x3fca3a64	1.579907
14	0x3f4c36d5	0.7977117
15	0x400ea60b	2.2288845
16	0x40449f47	3.0722215
17	0xc001434e	-2.019733
18	0xbf010434	-0.5039704
19	0xbe88e507	-0.26737234
20	0xbed487c6	-0.41509837
21	0x3f55a781	0.83458716
22	0xc019e4f1	-2.4045985
23	0xc07bda86	-3.9352126

observable_net.2.weight f4 [12, 24]
0	0x3d7f3d2e	0.062314205
1	0x3deccd65	0.115626134
2	0xbd6b21da	-0.05740533
3	0xbdf25d90	-0.11834252
4	0xbc11bfaa	-0.008895794
5	0xbac3e1f1	-0.0014944655
6	0xbe3304e0	-0.17482328
7	0x3d8d1667	0.068890385
8	0x3b3e6126	0.0029049604
9	0x3c3998a9	0.011327901
10	0xbdc98e7e	-0.09841631
11	0x3e1cc226	0.15308437
12	0x3d3ad444	0.04561259
13	0x3e951dbc	0.29124248
14	0xbd3cbea3	-0.046080243
15	0xbdb013db	-0.08597537
16	0x3de1e5ec	0.11030182
17	0x3dc36391	0.09540475
18	0xbe3f20ab	-0.18664806
19	0xbd0f9933	-0.03505821
20	0xbe13374b	-0.14376561
21	0x3ce9b471	0.028528424
22	0xbc76f63f	-0.015073358
23	0xbd6303e2	-0.055423625
24	0xbc4d2900	-0.012521982
25	0xbe27f364	-0.1640144
26	0x3e822c60	0.2542448
27	0x3e20f519	0.15718497
28	0x3d869383	0.065711044
29	0xbdfdd2f8	-0.12393755
30	0xbe1010b5	-0.14068873
31	0xbd6a8864	-0.05725898
32	0xbd64207b	-0.05569504
33	0xbe6db08a	-0.23211876
34	0x3cf067f0	0.029346436
35	0x3d2b4e4c	0.041822717
36	0x3e60bcac	0.21946973
37	0xbca2691f	-0.019825516
38	0xbe1ccf10	-0.15313363
39	0x3e137a8d	0.14402218
40	0x3d86bdb6	0.06579153
41	0xbcd2b4b2	-0.025720928
42	0x3e5a057f	0.21291159
43	0xbe83ec62	-0.25766283
44	0x3ded8880	0.11598301
45	0x3c73d6bf	0.014882742
46	0xbe2f69a3	-0.17130141
47	0xbed2d3d2	-0.4117723
48	0x3d551270	0.052019536
49	0x3d9cb495	0.07651631
50	0x3c27ccbf	0.010241686
51	0xbea3676a	-0.31914836
52	0xbe3f01d3	-0.1865304
53	0xbdedd626	-0.11613111
54	0xbd856fec	-0.06515488
55	0xbcd8e651	-0.02647701
56	0x3d25a8e6	0.040444277
57	0x3c09aa4d	0.008402419
58	0x3ef64fa4	0.48107636
59	0xbe17a8e4	-0.1481052
60	0x3d920678	0.0713014
61	0xbe0951b5	-0.13410075
62	0x3d90f1a3	0.070773385
63	0xbd87f2bd	-0.066380955
64	0xbd9af689	-0.07566554
65	0xbeb2e769	-0.34942177
66	0x3cb5dd0b	0.022200128
67	0x3eb35012	0.35022026
68	0xbda86528	-0.08222419
69	0x3dc3bb77	0.095572405
70	0x3dcc9a41	0.09990359
71	0xbce761d3	-0.028244888
72	0xbdc29845	-0.09501699
73	0xbe846acf	-0.25862738
74	0xbbb192d2	-0.0054191137
75	0x3d9d57ca	0.0768276
76	0x3dbc5078	0.09195036
77	0xbde90dda	-0.11379595
78	0x3e47f21e	0.19525954
79	0x3d0be985	0.03415825
80	0x3e0cab9d	0.1373734
81	0x3cc65f05	0.02421523
82	0xbc93d079	-0.018043743
83	0xbe3fb3d3	-0.18720941
84	0x3e912ba3	0.28353605
85	0x3e85e6c7	0.26152632
86	0xbd94cba0	-0.07265401
87	0xbc02c748	-0.007982083
88	0x3d096f17	0.03355321
89	0x3db89ac8	0.09013897
90	0xbe035fda	-0.12829533
91	0xbe26841c	-0.16261333
92	0xbdbbd18e	-0.09170829
93	0xbf00d586	-0.5032581
94	0xbc63e9e1	-0.013910742
95	0xbdf5771b	-0.11985608
96	0xbe319d78	-0.17345226
97	0xbe2a666e	-0.16640636
98	0xbd340cc6	-0.043957494
99	0xbbff7477	-0.007795866
100	0x3d7a17f4	0.061058
101	0x3e9da18f	0.30787322
102	0xbaa3fd3d	-0.0012511384
103	0x3dcee4bd	0.10102222
104	0xbc6f17e2	-0.014593096
105	0x3e726829	0.23672546
106	0xbe0b1f44	-0.13586146
107	0xbe2da8d7	-0.16958939
108	0xbb58315f	-0.0032988412
109	0x3dbd39a7	0.09239512
110	0xbda5ae65	-0.08089904
111	0xbde3e0c9	-0.11126859
112	0xbd70528b	-0.05867247
113	0x3e1ba7b5	0.15200694
114	0xbeb9080e	-0.36138958
115	0xbd0efa8b	-0.034906905
116	0xbd5db9a9	-0.054132137
117	0xbea2b168	-0.31775975
118	0xbeb686a2	-0.35649592
119	0x3db0d02e	0.08633457
120	0x3d96a310	0.073553205
121	0x3c15ff05	0.00915504
122	0xbee5396d	-0.44770375
123	0x3e00ee96	0.12591013
124	0xbe41f589	-0.1894132
125	0x3db0be2b	0.08630022
126	0xbe4258e1	-0.18979217
127	0x3e7923c5	0.24330051
128	0x3d8a0792	0.06739725
129	0xbe0088db	-0.12552206
130	0xbe96d5b8	-0.2945993
131	0xbdda1cf2	-0.10650052
132	0xbd29ecea	-0.041485704
133	0x3ecbec1c	0.39828575
134	0x3eb81fa8	0.35961652
135	0xbe29ab15	-0.16569169
136	0xbe8622ad	-0.2619833
137	0x3e2cbcfe	0.1686897
138	0x3e83780e	0.25677532
139	0x3ed1dbcd	0.40988007
140	0x3d0a3a58	0.033747047
141	0xbdab74d7	-0.08371895
142	0xbe2292cb	-0.1587631
143	0xbe2e8ff1	-0.17047097
144	0xbe25f4ce	-0.16206667
145	0xbdeb96cd	-0.11503372
146	0x3e433441	0.19062902
147	0xbe08e2a5	-0.13367708
148	0xbe61a260	-0.22034597
149	0x3db670be	0.089082226
150	0x3de87c28	0.11351806
151	0xbd99c208	-0.07507712
152	0xbe269e6c	-0.1627137
153	0x3e35b926	0.1774641
154	0x3f0f307d	0.5593336
155	0xbd0bc4f0	-0.03412336
156	0x3dffabf3	0.124839686
157	0x3e2e6919	0.17032279
158	0xbddfa7d3	-0.10920682
159	0xbcdcbf03	-0.02694655
160	0x3e1b201e	0.1514897
161	0xbee7ca04	-0.45271313
162	0xbe027952	-0.12741593
163	0x3e43103b	0.1904916
164	0xbdfd7057	-0.12374943
165	0x3c6cdd5e	0.014457075
166	0xbe1066f7	-0.14101778
167	0x3ee88408	0.45413232
168	0xbe039ea2	-0.12853482
169	0xbdcfe6bb	-0.1015143
170	0x3dadbc7c	0.08483216
171	0xbea499ec	-0.32148683
172	0x3db84146	0.08996825
173	0x3cd59712	0.026073013
174	0xbd7b63a5	-0.061374325
175	0xbdbac814	-0.09120193
176	0x3e075baf	0.13218568
177	0xbe8192a9	-0.25307205
178	0x3e126666	0.14296874
179	0xbd4ee0f1	-0.05050749
180	0xbe43c9e5	-0.19119985
181	0x3e1ce37b	0.15321152
182	0xbde4374e	-0.11143361
183	0xbda0d05d	-0.07852242
184	0xbe78d0a9	-0.24298348
185	0xbd328676	-0.043585263
186	0x3ed13302	0.40859228
187	0xbdeba44b	-0.11505946
188	0xbe3fdb17	-0.1873592
189	0xbe3160a5	-0.17322023
190	0xbcef6c1b	-0.029226353
191	0x3dde0961	0.10841633
192	0xbe268b82	-0.16264156
193	0x3e41553f	0.18880175
194	0xbdba8297	-0.09106939
195	0x3e038064	0.12841946
196	0x3da71ad7	0.08159416
197	0xbe2430b9	-0.16034211
198	0xbead7a25	-0.3388225
199	0xbbfdc600	-0.0077445507
200	0x3d19d401	0.0375557
201	0x3dd18645	0.10230688
202	0x3d57974d	0.052634526
203	0xbc07514a	-0.008259127
204	0x3dee43b2	0.116340056
205	0xbe9e6312	-0.3093496
206	0xbdb660c9	-0.08905179
207	0x3c342ea0	0.010997444
208	0xbec40a9e	-0.3828935
209	0x3cc13262	0.023583595
210	0xbdfc6add	-0.1232507
211	0x3d946906	0.07246594
212	0x3dd5bb12	0.104360715
213	0x3e9aa70c	0.30205572
214	0xbd98afc3	-0.07455399
215	0x3e2f10ab	0.17096202
216	0xbe2e21ad	-0.17005034
217	0x3de5dca7	0.11223727
218	0xbbe3a524	-0.0069471765
219	0x3e66ffe9	0.2255856
220	0xbd832ff9	-0.064056344
221	0x3eb94ad4	0.36189902
222	0xbea9b27c	-0.33143985
223	0x3d9c86f1	0.076429255
224	0x3d5bd8f5	0.053673703
225	0x3e16190e	0.14657995
226	0x3eb4a163	0.35279378
227	0xbdfb167f	-0.1226015
228	0xbd043250	-0.032274544
229	0x3ee95bb5	0.4557778
230	0x3e745af0	0.23862815
231	0xbe195904	-0.14975363
232	0xbe9e1844	-0.30877888
233	0xbe7289fb	-0.23685448
234	0x3e8f0de0	0.27940273
235	0xbe37288e	-0.17886564
236	0xbd8f90c6	-0.07010035
237	0xbe2fb640	-0.17159367
238	0xbf07a710	-0.5298929
239	0x3ede392a	0.43402988
240	0x3da78673	0.08179941
241	0xbe31472e	-0.17312309
242	0xbf0f9edf	-0.56101793
243	0xbd8ca70b	-0.068677984
244	0xbbc79d60	-0.0060917586
245	0xbd188727	-0.037238266
246	0x3e6d85fa	0.23195639
247	0x3e99deba	0.3005274
248	0xbd631d8b	-0.055448096
249	0xbdc626e6	-0.09675388
250	0xbd8821ea	-0.066470936
251	0xbceefd76	-0.029173594
252	0x3e270e63	0.16314082
253	0xbe14361c	-0.14473766
254	0xbe82f6c3	-0.2557889
255	0x3e210103	0.15723042

observable_net.2.bias f4 [12]
0	0xbf219284	-0.6311419
1	0xbf106d9d	-0.56417257
2	0x3fb4635e	1.4092824
3	0x3ee86ebb	0.4539698
4	0x3f407403	0.7517702
5	0xbf25db43	-0.6478769
6	0x3f76e7e6	0.964476
7	0x3e99ea67	0.30061647
8	0x3fa6f002	1.3041995
9	0x3edbdcd0	0.42941904
10	0x3f411bd8	0.7543311
11	0xbe973fff	-0.29541013

recovery_net.0.weight f4 [24, 12]
0	0xbf010c20	-0.50409126
1	0xbfb012a3	-1.3755687
2	0x3f65eda6	0.8981575
3	0x3ed8d465	0.42349544
4	0x3fef30fb	1.8686823
5	0xbf38ca1e	-0.72183406
6	0x3edb780b	0.42865023
7	0xbf09d221	-0.53836256
8	0xbd8055ff	-0.062664025
9	0xbe07d60c	-0.13265246
10	0xbeb12b81	-0.34603503
11	0x3ff730d4	1.9311776
12	0xbfb18faa	-1.3871968
13	0x3f95cd2a	1.1703236
14	0x3fb97713	1.4489464
15	0x3dd6f4e8	0.10495931
16	0xbfb2de02	-1.3974001
17	0x3f62f306	0.88652074
18	0x3e0cf6f9	0.13766088
19	0x3f136d46	0.57588613
20	0xbf9e2069	-1.2353641
21	0x3fa936c0	1.3219833
22	0x3f6169f7	0.88052315
23	0xbe984a0e	-0.29744
24	0x3f0f2bf9	0.5592647
25	0xbf1736cc	-0.5906799
26	0x3f0acdf7	0.5422053
27	0xbf949147	-1.1606835
28	0x3ee97863	0.4559966
29	0x3e2adb1b	0.16685145
30	0xbf0c7b14	-0.548753
31	0xbf07c0a9	-0.5302835
32	0xbde70690	-0.112805486
33	0xbee96bfb	-0.45590195
34	0xbdec6e5b	-0.11544486
35	0xbcb3a8d6	-0.021931093
36	0x40069dc5	2.1033795
37	0xbfe5401f	-1.7910193
38	0xbbbd500b	-0.005777364
39	0x3d834cda	0.06411143
40	0xbfb0be23	-1.3808025
41	0xbee5e325	-0.4489986
42	0xbef1dd0f	-0.47238967
43	0xbe680e58	-0.22661722
44	0x3f5023b2	0.81304467
45	0x3f386789	0.7203298
46	0xbe9cd71a	-0.3063286
47	0x3f0232cf	0.5085878
48	0x3f9f0ed2	1.2426398
49	0xbed215c6	-0.41032237
50	0x3eee7d4c	0.4657997
51	0x3d180e8f	0.03712326
52	0xbdc0cfa3	-0.094146036
53	0x3ede24dc	0.43387496
54	0x3d04ea08	0.032449752
55	0xbef38531	-0.47562554
56	0x3f6e57b0	0.9310255
57	0xbec1b7fd	-0.37835684
58	0x3e2fc36b	0.1716439
59	0xc02174d4	-2.5227556
60	0x3fb0eeca	1.3822873
61	0xbfcec158	-1.6152754
62	0xbecd51c6	-0.4010145
63	0x3dd93534	0.10605851
64	0x3f93cef2	1.154753
65	0x3e014f48	0.126279
66	0xbe9124c4	-0.28348362
67	0xbe89c89d	-0.26910868
68	0x3e8b87f0	0.2725215
69	0xbf61e0d0	-0.8823366
70	0xbf506804	-0.81408715
71	0x3f1312a7	0.57450336
72	0x3f3e8616	0.7442335
73	0x3ef93ca0	0.48679066
74	0x3e99fe0e	0.3007664
75	0xbeb1b948	-0.3471167
76	0x3e34e3af	0.1766498
77	0x3c902f3a	0.017600644
78	0xbf99b996	-1.2009761
79	0x3ec27903	0.3798295
80	0x3cb779c7	0.022396935
81	0x3ea1406b	0.3149446
82	0xbe5e44ef	-0.21705984
83	0xc00311f6	-2.0479712
84	0x3f4e8110	0.80665684
85	0xbfd389e7	-1.652646
86	0x3f61a7cc	0.8814666
87	0x3e045703	0.12923817
88	0xbdd671c8	-0.10470921
89	0xbf2038db	-0.62586755
90	0x3f73f092	0.95288956
91	0xbfab6799	-1.339099
92	0x3f2d86ea	0.6778399
93	0x3e6fe0bc	0.23425573
94	0x3dfc7997	0.12327879
95	0xbe81d27c	-0.253559
96	0x3f3ca35a	0.73686755
97	0xbdf3b019	-0.11898822
98	0x3edc94e5	0.43082348
99	0x3f8279c1	1.0193406
100	0x3f0b17cf	0.54333204
101	0x3efb9fb8	0.49145293
102	0xbf805559	-1.0026046
103	0xbfd5b0e4	-1.6694608
104	0xbc90d783	-0.017680889
105	0xbeb663ad	-0.35622922
106	0xbf89561a	-1.0729401
107	0xbe6391d8	-0.22223604
108	0x3efa3203	0.4886628
109	0x3e4e2067	0.20129548
110	0xbe8f265c	-0.27958953
111	0xbd89e68b	-0.06733426
112	0xbf68f076	-0.90991914
113	0xbe160883	-0.14651684
114	0xbfb470d3	-1.4096931
115	0x3f61283a	0.87952006
116	0xbf54e3aa	-0.8315989
117	0x3f453b07	0.77043194
118	0xbf1a58b6	-0.6029161
119	0xbf5f85d7	-0.873136
120	0x3dd808e3	0.1054857
121	0xbda42f73	-0.08016863
122	0xbf0baa76	-0.5455698
123	0xbefeb993	-0.49750957
124	0x3e9e701d	0.3094491
125	0x3f23fd46	0.6405834
126	0xbf9cdf7d	-1.2255703
127	0x3f4352a2	0.7629796
128	0x3f8c0dc4	1.0941701
129	0xbec5027a	-0.38478452
130	0x3f7327fc	0.94982886
131	0xbe22e257	-0.15906654
132	0xbe4ccee1	-0.20000793
133	0x3ea4f3c9	0.32217243
134	0xbe32c853	-0.1745923
135	0x3ecff6d5	0.40618005
136	0x3f0edd72	0.5580665
137	0x3ec02843	0.37530717
138	0xbed56531	-0.41678765
139	0x3de61b9f	0.11235737
140	0x3f0a78d8	0.5409064
141	0xbf2a2b7a	-0.6647259
142	0xbf385c14	-0.720155
143	0xbf050f63	-0.51976603
144	0xbf2a90c8	-0.6662717
145	0x3f18f72d	0.5975216
146	0xbf01d21d	-0.5071123
147	0x3e9fba0f	0.3119664
148	0x3ee8efae	0.4549536
149	0x3e366048	0.17810166
150	0x3f846f2e	1.0346429
151	0x3ed48989	0.4151118
152	0x3ce6db7f	0.028180836
153	0xbf55f047	-0.8356976
154	0xbf038a7d	-0.5138319
155	0x3f4d917e	0.8030013
156	0x3e857b81	0.26070789
157	0x3e1414fd	0.14461131
158	0xbe54b283	-0.20771222
159	0xbf379f60	-0.7172756
160	0xbfc15f5b	-1.5107225
161	0xbf06c99f	-0.526514
162	0x3f88c9bf	1.0686568
163	0xbd475062	-0.048660643
164	0xbf8ddf75	-1.1083819
165	0x3f716cbc	0.9430654
166	0x3f93f28e	1.1558397
167	0x3f35056d	0.70711404
168	0xc00e64b7	-2.2248971
169	0xbf93b6e8	-1.1540194
170	0x3f633a09	0.8876043
171	0x3e5db738	0.21651924
172	0x3f1d36c8	0.61411715
173	0xbe08814c	-0.13330573
174	0x3edfd88f	0.4371991
175	0xbf9fdc8f	-1.2489184
176	0xbea4356f	-0.32072017
177	0xbf6a296d	-0.9146946
178	0x3e96886c	0.29400957
179	0x3ef6e06a	0.4821809
180	0xbf9672c2	-1.1753771
181	0xbe147064	-0.14495999
182	0x3e07ac93	0.13249426
183	0xbe58748e	-0.21138212
184	0xbf1018de	-0.56287944
185	0xbf7cb84b	-0.9871871
186	0x3f1b23ae	0.6060132
187	0x3e31b2c2	0.17353347
188	0xc0160143	-2.343827
189	0x3fe36219	1.7764312
190	0x3f7248b7	0.94642204
191	0xbeefa080	-0.4680214
192	0xbf5f485c	-0.87219787
193	0x3f131be7	0.5746445
194	0xbf81c55c	-1.0138354
195	0xbded23d6	-0.11579101
196	0x3ef7d37e	0.48403543
197	0xbe3f655a	-0.18691006
198	0xbe716304	-0.23572928
199	0x3f5e6b50	0.86882496
200	0xbf944c44	-1.1585774
201	0x3e2bb902	0.16769794
202	0x3cff4420	0.031160414
203	0x3dfabf91	0.1224357
204	0xbec4be4f	-0.38426444
205	0xbead0a6f	-0.33797023
206	0x3ee9384d	0.45550767
207	0x3e5895ea	0.21150938
208	0xbe6ae012	-0.22937039
209	0xbf27126b	-0.6526248
210	0x3f8b4345	1.0879904
211	0xbf812b75	-1.0091387
212	0xbf808d84	-1.0043187
213	0x3f029dca	0.51022017
214	0xbf585c79	-0.845161
215	0x3e497d81	0.19676782
216	0x3de58f74	0.11209002
217	0x3eaed333	0.34145507
218	0xbe0572f4	-0.13032132
219	0xbf22617d	-0.63430005
220	0x3e98a47f	0.29813
221	0x3e852d99	0.2601135
222	0xbeb2632d	-0.3484129
223	0x3f0221a1	0.50832564
224	0x3f0673f6	0.5252069
225	0x3efdf5c6	0.49601573
226	0x3e8202f0	0.25392866
227	0xbe484a95	-0.19559701
228	0xbebb0a9e	-0.36531538
229	0xbfc4446f	-1.5333384
230	0x3f660204	0.89846826
231	0xbdbf4d9d	-0.093409754
232	0x3ed224f6	0.41043824
233	0xbf303fb5	-0.6884721
234	0x3fa8bce4	1.3182645
235	0xbf98f46f	-1.1949595
236	0xbea45c7f	-0.3210182
237	0xbf3d7c0b	-0.740174
238	0xbde671b7	-0.11252158
239	0xbec17a34	-0.37788546
240	0xbf9a00d8	-1.2031507
241	0x3f6d0fad	0.92602044
242	0x3f713ea3	0.942362
243	0xbf427091	-0.7595301
244	0xbf8747fa	-1.056884
245	0xbeacc287	-0.33742163
246	0x3fb85e40	1.4403763
247	0x3ee690d7	0.4503238
248	0xc032998c	-2.7906218
249	0x3fa16252	1.260813
250	0x3f131b10	0.5746317
251	0xbee1bba8	-0.44088483
252	0xbf0ff088	-0.56226397
253	0x3ed76e61	0.420764
254	0xbeabfb2d	-0.3359007
255	0xbe3db740	-0.18526936

recovery_net.0.bias f4 [24]
0	0xc013011e	-2.2969432
1	0xbf830e12	-1.0238669
2	0x402a7716	2.6635184
3	0x3e9da1e0	0.30787563
4	0xbe6ae986	-0.22940645
5	0x3dee6f15	0.11642281
6	0xc094d107	-4.650516
7	0x401896d0	2.3842049
8	0x4001d4d3	2.0286148
9	0x400178be	2.0229945
10	0x401688c1	2.3520968
11	0x3fc2fb78	1.5232992
12	0x40223668	2.5345707
13	0xc02aa1d9	-2.6661284
14	0xbfeb3861	-1.837658
15	0x3ff7c3b7	1.9356602
16	0xbfefd363	-1.8736385
17	0xbffb8880	-1.9651031
18	0x3ff145cb	1.8849424
19	0x4014f411	2.3273966
20	0x3fddfdd5	1.7343088
21	0x4004283e	2.0649562
22	0x40085260	2.1300278
23	0xbfa2c3d8	-1.2716017

recovery_net.2.weight f4 [3, 24]
0	0xbda54d27	-0.08071356
1	0x3e53d500	0.20686722
2	0xbd979533	-0.07401504
3	0x3b1f10c0	0.0024271458
4	0x3c86655a	0.01640575
5	0xbeaba8a5	-0.33527103
6	0xbf440e6c	-0.76584506
7	0x3d210d65	0.039319415
8	0xbe959835	-0.29217687
9	0xbc257ad8	-0.010100089
10	0x3f434b0a	0.76286376
11	0xbf5b7cd2	-0.85737336
12	0xbcaf7caa	-0.02142175
13	0x3f1e96d9	0.61948925
14	0x3dcce672	0.100048915
15	0x3e975a6c	0.29561174
16	0xbd3c4fc4	-0.045974508
17	0xbf56d7e3	-0.83923167
18	0x3e82de9c	0.25560462
19	0xbd0efc21	-0.034908418
20	0xbe4e4fde	-0.20147654
21	0xbd61cc59	-0.05512652
22	0x3dcb0158	0.09912366
23	0x3d441b95	0.047877867
24	0x3ef97721	0.487237
25	0xbf6d5a30	-0.9271574
26	0x3f78c77c	0.9717939
27	0xbf1ab6bc	-0.6043508
28	0x3e8e7cbd	0.27829543
29	0x3f033801	0.5125733
30	0xbf9cf099	-1.2260925
31	0x3f0317a8	0.5120797
32	0xbf024d42	-0.50899136
33	0xbf504a71	-0.8136359
34	0x3f3929dc	0.723295
35	0xbeda64fe	-0.42655176
36	0xbdd0d05f	-0.10195994
37	0x3f5225a7	0.820887
38	0x3f465ac2	0.77482235
39	0x3f6fa56d	0.93611795
40	0xbee9a4f3	-0.4563366
41	0xbf83edff	-1.0307006
42	0x3e8532aa	0.26015216
43	0xbf09fb78	-0.53899336
44	0xbf2cd058	-0.6750541
45	0xbe7a3d40	-0.24437428
46	0xbcd0bef9	-0.025481688
47	0x3ec2bd91	0.38035253
48	0xbe71ed53	-0.23625688
49	0x3e006377	0.12537943
50	0x3ec1522c	0.37758005
51	0xbe1c82c7	-0.15284263
52	0xbed439d3	-0.41450366
53	0x3dc9f726	0.09861593
54	0xbfa4179d	-1.2819706
55	0xbf379ae6	-0.7172073
56	0x3f73c086	0.9521564
57	0x3f3bb8bf	0.73328775
58	0x3f21b587	0.63167614
59	0x3f2b6006	0.66943395
60	0x3f4de555	0.8042806
61	0xbf29b925	-0.66298133
62	0xbf336aef	-0.7008504
63	0x3f06f8d2	0.5272342
64	0xbe3ea2e5	-0.18616827
65	0xbf1866f6	-0.59532106
66	0x3efbae24	0.49156296
67	0x3f224a68	0.63394785
68	0xbf229b79	-0.6351848
69	0x3f60330b	0.87577885
70	0x3fa8e9b5	1.3196322
71	0xbe5cb3c2	-0.21552947

recovery_net.2.bias f4 [3]
0	0x3f891f52	1.0712683
1	0x3f0af035	0.54272777
2	0x3fe4d75a	1.787822
