Koopman_Chaos/my_results/trained_koopman_model.pth (torch, 7346 bytes, 9 tensors)

k_matrix_raw f4 [144]
0	0x3f7d09e2	0.98843205
1	0xbaf009e2	-0.0018313492
2	0xbaf32939	-0.0018551714
3	0x3b079574	0.0020688446
4	0xbbc20e33	-0.005922103
5	0xbc0e468f	-0.008683815
6	0xbb5eb7a4	-0.003398397
7	0x3c2e307d	0.010631678
8	0xbb5b8c77	-0.0033500472
9	0xbaeb6915	-0.0017960394
10	0xba0f833a	-0.00054745714
11	0xbb74f7b1	-0.003737908
12	0x3ab61512	0.0013891777
13	0x3f6dd28b	0.9289939
14	0xbb9f3dbe	-0.004859655
15	0xba0fa204	-0.00054791593
16	0x3bd771da	0.0065748515
17	0x3c1a2041	0.009407104
18	0x3b4fc16e	0.0031700986
19	0xbbf7adef	-0.0075585763
20	0x3b9559ee	0.0045578396
21	0x3b950ce3	0.0045486554
22	0x3af24c55	0.0018485883
23	0x3b482ef4	0.0030545564
24	0x3aefc3c5	0.0018292597
25	0x3bc54ff7	0.0060214954
26	0x3f818543	1.0118793
27	0x3b494a7f	0.003071457
28	0x3ac11f63	0.0014734085
29	0xba12b63b	-0.00055966125
30	0xbb550db6	-0.0032509393
31	0x3c59ea76	0.013300529
32	0x3b8c26c4	0.004277082
33	0x361bea2c	2.3233106e-06
34	0xb8c6a2c3	-9.4716925e-05
35	0xbc1caa86	-0.00956214
36	0xbb07a6b2	-0.0020698723
37	0xba099ddc	-0.0005249658
38	0xbabc00a8	-0.0014343457
39	0x3f7e2d86	0.99288213
40	0xba4f97b3	-0.0007919028
41	0x3a150388	0.0005684425
42	0x3a36a34d	0.0006967083
43	0xbb9caee8	-0.0047815926
44	0xb95d4fe6	-0.00021105967
45	0xba875413	-0.0010324739
46	0x3a811064	0.0009846804
47	0x3b36e594	0.0027907835
48	0x3b1e259f	0.002413131
49	0xba5bd5d2	-0.0008386049
50	0xbafd9fb7	-0.0019349967
51	0x3863006c	5.412141e-05
52	0x3f5172c0	0.8181572
53	0x3b0ef12d	0.0021811232
54	0x38f26be1	0.00011559553
55	0x3aa04f15	0.00122306
56	0x3b0bf940	0.0021358281
57	0x3b788894	0.0037923204
58	0xba0197dd	-0.0004943589
59	0x3a4b38bf	0.0007752291
60	0x3bc6c6be	0.0060661724
61	0xbc2ce060	-0.010551542
62	0x3b8c3266	0.004278469
63	0xbac1a22c	-0.0014773062
64	0xbbc38ff8	-0.00596809
65	0x3f84619f	1.0342292
66	0xbb8e85df	-0.004349455
67	0x3becee11	0.007230528
68	0xb9310ecf	-0.00016885552
69	0x3c188035	0.009307911
70	0xbaf71726	-0.0018851503
71	0xbad13ffb	-0.0015964502
72	0x3a8c1413	0.0010687135
73	0xbad3b2cf	-0.0016151312
74	0x3b1848da	0.0023236782
75	0xba967f45	-0.0011482021
76	0xb8dd5548	-0.00010553986
77	0x3a97c018	0.0011577634
78	0x3f433f21	0.762682
79	0x3a880d34	0.0010379911
80	0x39bc7b8f	0.00035950213
81	0x3abc81b6	0.0014381919
82	0xb9119bc5	-0.00013886306
83	0x3a8040ea	0.0009784971
84	0xbc026c20	-0.007960349
85	0x3c4074f7	0.011746637
86	0xbc73bc40	-0.014876425
87	0x3bf436f4	0.00745284
88	0xbb9abc59	-0.00472216
89	0xbc4c51dd	-0.01247069
90	0x3b71c168	0.003688896
91	0x3f84c409	1.0372325
92	0x3b94ff69	0.004547049
93	0xbc1a7c61	-0.009429068
94	0x3b07c337	0.0020715722
95	0x3b61fdbc	0.0034483513
96	0x3aaad474	0.0013033287
97	0xbbb8eade	-0.0056432327
98	0xbbd79156	-0.0065786047
99	0x3918df1e	0.00014578967
100	0xbb6ce46f	-0.00361469
101	0x392a49c2	0.0001623994
102	0xb9865fb1	-0.00025629767
103	0xba9af46a	-0.0011822109
104	0x3f851ce5	1.0399443
105	0x3b9593f5	0.004564757
106	0xba3493bf	-0.0006888471
107	0x3b31198d	0.0027023286
108	0xb85077cc	-4.9702634e-05
109	0xbbbdb78f	-0.005789704
110	0xbb2577cf	-0.0025248413
111	0x3ad817ae	0.0016486549
112	0xbc2a4eac	-0.010394733
113	0xbc51d909	-0.012808093
114	0xbb415b77	-0.002950398
115	0x3c1e7846	0.00967223
116	0xbba73dcd	-0.005103803
117	0x3f7d375a	0.98912585
118	0xbae89e09	-0.0017747293
119	0xbaa8a258	-0.0012865765
120	0x3ab2f860	0.0013654344
121	0xb8a8e282	-8.0530546e-05
122	0x3a51f873	0.0008009739
123	0xb9fee9ca	-0.00048620842
124	0x3b48674d	0.003057915
125	0x39c35faf	0.00037264588
126	0x3ab9e325	0.0014182074
127	0xba952420	-0.0011378564
128	0x3a1ac656	0.0005904188
129	0x3ad645eb	0.0016347741
130	0x3f46418a	0.77443755
131	0xba355b3e	-0.0006918198
132	0x3affa1f5	0.0019503223
133	0xbb884807	-0.004158977
134	0x3c5e23f5	0.0135583775
135	0xbb8abb5d	-0.004233761
136	0xb994cd30	-0.00028381636
137	0x3ab184c0	0.0013543591
138	0xbaf56964	-0.0018723425
139	0x39a24c1f	0.00030955762
140	0xbb643c57	-0.0034826004
141	0xba7c5af5	-0.0009626591
142	0xba95b478	-0.0011421582
143	0x3f72f92e	0.9491147

observable_net.0.weight f4 [24, 3]
0	0xbfae10a5	-1.359883
1	0x3ef62484	0.48074734
2	0xbef5fb0a	-0.4804309
3	0x3e96e603	0.2947236
4	0x3f757c7c	0.95893073
5	0x3f19bb6c	0.6005161
6	0x3f86f027	1.0542039
7	0x3e9a6115	0.30152193
8	0x3e792634	0.2433098
9	0x3ed6b027	0.4193127
10	0x3f021f7d	0.508293
11	0xbe98deff	-0.29857633
12	0x3d8db90a	0.06920059
13	0x3d97e846	0.074173495
14	0xbef4b682	-0.47795492
15	0xbe8c49b1	-0.27399972
16	0xbef66f27	-0.48131678
17	0xbe789f2b	-0.24279468
18	0x3fa6504d	1.2993256
19	0x3f55532d	0.8333004
20	0x3f6af367	0.9177765
21	0x3ef44507	0.47708914
22	0xbef678dc	-0.48139083
23	0xbf19a0bf	-0.60010904
24	0x3faeb9d5	1.3650461
25	0x3f55fb3f	0.83586496
26	0x3ed5ee8b	0.41783556
27	0x3df85ae6	0.121267125
28	0x3f66971d	0.9007433
29	0x3d96ddc7	0.073665194
30	0xc008452b	-2.1292217
31	0x3f4798c5	0.7796748
32	0xbf390c9b	-0.7228486
33	0x3e6f668e	0.23378965
34	0x3dd33111	0.10312093
35	0xbe884eab	-0.2662252
36	0x3f98d283	1.1939243
37	0xbd72662a	-0.059179462
38	0x3eba6ab8	0.36409545
39	0x3d6b6c3d	0.05747627
40	0xbf2e0ba6	-0.67986524
41	0xbeb13534	-0.34610903
42	0xbe03ae8d	-0.12859555
43	0xbf979a05	-1.1843878
44	0xbe528037	-0.20556723
45	0xbf7f11bc	-0.99636436
46	0xbf4ea472	-0.80719674
47	0xbf503376	-0.81328523
48	0xbe8be366	-0.2732193
49	0xbe162170	-0.14661193
50	0x3eb13d2e	0.3461699
51	0x3e307d53	0.17235307
52	0x3fd7f930	1.6872921
53	0x3e81b8ed	0.253364
54	0x3f49860e	0.78720176
55	0x3f71a4c1	0.9439202
56	0xbeb5140c	-0.35366857
57	0x3fce7e10	1.6132221
58	0x3f4eb241	0.80740744
59	0xbf1300b1	-0.5742293
60	0x3e7a81d9	0.24463595
61	0x3d3c091e	0.045907132
62	0x3e873186	0.2640497
63	0xbe8554ff	-0.2604141
64	0xbeeeef2f	-0.46666858
65	0x3e4587d6	0.19290099
66	0x3ff28327	1.8946275
67	0x3edccab5	0.43123403
68	0x3eeb2383	0.4592553
69	0x3f68927b	0.9084851
70	0x3d9ce3a3	0.07660606
71	0x3f62899a	0.88491213

observable_net.0.bias f4 [24]
0	0xbcbfccf0	-0.023413152
1	0xbecd3c75	-0.40085188
2	0x3f3c3afe	0.73527515
3	0x40200569	2.5003302
4	0xbe44b587	-0.19209872
5	0xc02e762b	-2.7259624
6	0xbe1c87b8	-0.15286148
7	0x3ee4ab32	0.44661862
8	0xbf224e72	-0.6340095
9	0x3fe9220e	1.8213518
10	0x3f0150d0	0.50513935
11	0x3f0e044c	0.55475307
12	0x3f71b0f9	0.94410664
13	0x3fa4a630	1.2863216
14	0x3f26024d	0.6484726
15	0x3f0f17eb	0.5589587
16	0xbe1875fd	-0.14888759
17	0x3e07df68	0.13268816
18	0xbb899172	-0.0041982466
19	0xc00a7e76	-2.1639686
20	0x3e4f2869	0.20230259
21	0xbf623352	-0.8835956
22	0x3ec2132c	0.37905252
23	0x3f09a041	0.53760153

observable_net.2.weight f4 [12, 24]
0	0x3d2b093b	0.04175685
1	0xbe97d784	-0.29656613
2	0xbf4e971f	-0.8069934
3	0x3d9002d1	0.07031787
4	0x3cfff493	0.031244552
5	0xbe9a085a	-0.30084497
6	0x3f0a9923	0.5413992
7	0x3c6ecbdf	0.014574974
8	0x3ea1effe	0.31628412
9	0x3ea9e58a	0.33182937
10	0xbd39e49e	-0.045384042
11	0xbe15905c	-0.1460585
12	0x3d8ca68a	0.06867702
13	0x3ea09513	0.31363735
14	0x3cfeb8a5	0.031093905
15	0xbee6e743	-0.45098314
16	0x3e055dc7	0.13024054
17	0xbe590109	-0.21191801
18	0xbeb0cf78	-0.34533286
19	0x3e222962	0.15836099
20	0x3cfe4bae	0.031041946
21	0x3e8df1d0	0.2772355
22	0x3e140387	0.1445447
23	0xbeb2c0a9	-0.34912613
24	0xbe9d7d7a	-0.30759794
25	0xbe36c73a	-0.17849436
26	0x3ed65639	0.41862658
27	0x3e014042	0.12622169
28	0xbe25da69	-0.16196598
29	0xbe68e9e7	-0.22745477
30	0x3deecc6f	0.11660086
31	0x3e94fe40	0.29100227
32	0xbe4eab13	-0.20182447
33	0x3ed70c2c	0.42001474
34	0x3df1f855	0.11814944
35	0x3e9258e8	0.28583455
36	0x3d19e6d0	0.037573636
37	0x3d6d7925	0.05797686
38	0x3d893220	0.06699014
39	0x3daa52b8	0.083165586
40	0xbdc8f2d8	-0.09811944
41	0xbe1a71d1	-0.1508248
42	0xbc1c0d72	-0.00952469
43	0x3c8ba54e	0.017046597
44	0xbde26bec	-0.11055741
45	0x3b9ed466	0.004847097
46	0xbe1c86c7	-0.15285788
47	0x3b5448e7	0.0032392086
48	0xbe29e0bc	-0.16589636
49	0x3e92be40	0.28660774
50	0x3bb7ed72	0.0056130225
51	0x3d71988f	0.05898338
52	0x3e33aad2	0.17545632
53	0xbd8fbe54	-0.07018724
54	0x3e090ae9	0.13383068
55	0x3e4d4fd3	0.20049982
56	0x3d73004b	0.05932645
57	0x3d1688d8	0.036751598
58	0x3d6a6721	0.057227258
59	0x3e848796	0.25884694
60	0x3e73e94d	0.23819466
61	0xbe912b6e	-0.28353447
62	0x3dae5a84	0.08513358
63	0xbeac2345	-0.3362066
64	0xbe8e5c1d	-0.27804652
65	0xbde0c124	-0.10974339
66	0xbe7b176a	-0.2452065
67	0x3d899196	0.067172214
68	0xbe321171	-0.17389466
69	0x3e860d0b	0.26181826
70	0xbde3f986	-0.11131577
71	0xbe89ee18	-0.26939464
72	0xbe4e208b	-0.20129602
73	0xbec8e07d	-0.3923377
74	0x3e211bf6	0.15733323
75	0x3e7a1354	0.24421436
76	0xbd35bf89	-0.044372115
77	0x3e5476c5	0.20748432
78	0xbd2f95f7	-0.042867627
79	0xbe7ac864	-0.24490505
80	0x3edf0add	0.43562976
81	0xbe321bfa	-0.17393485
82	0x3e7346ed	0.23757525
83	0x3e34e2e8	0.17664683
84	0xb8a07809	-7.651753e-05
85	0x3f0c7075	0.54859096
86	0xbdedb1dc	-0.116061896
87	0xbd38fa0b	-0.045160335
88	0xbcc4bb33	-0.024015045
89	0x3d9999ef	0.07500064
90	0xbe3af244	-0.1825648
91	0x3e3da174	0.1851862
92	0x3e7216d3	0.23641519
93	0xbe35f783	-0.177702
94	0xbf0370d9	-0.51344067
95	0x3ea0b74f	0.31389853
96	0x3e3b5be6	0.18296775
97	0x3e8a8b71	0.2705951
98	0xbea922c9	-0.3303435
99	0xbdd8bd6f	-0.105830066
100	0xbb5f730e	-0.0034095678
101	0xbdce5251	-0.10074294
102	0xbba87f1b	-0.0051421053
103	0xbe4dc6c5	-0.20095356
104	0x3e6cc08f	0.2312033
105	0xbe05c10a	-0.1306192
106	0xbd01f616	-0.031728826
107	0x3e819047	0.25305387
108	0xbe765603	-0.24056248
109	0xbd4112cf	-0.047137078
110	0x3eed77ba	0.46380407
111	0xbe797fb4	-0.24365121
112	0xbdfbb61d	-0.12290595
113	0xbe976197	-0.29566643
114	0x3e22c235	0.15894397
115	0x3db428fc	0.0879688
116	0x3f2a8b6e	0.66619
117	0xbe9ca885	-0.3059732
118	0x3e137f4d	0.1440403
119	0xbe352cb1	-0.1769283
120	0x3d5c6cad	0.05381458
121	0xbe35708d	-0.17718716
122	0xbcfd44ef	-0.03091666
123	0xbe2fd389	-0.17170538
124	0xbe78b73f	-0.24288653
125	0x3c9401ed	0.018067325
126	0x3e18f84b	0.14938466
127	0xbe04aae8	-0.1295582
128	0xbd1d47df	-0.03839862
129	0x3eaee7d8	0.34161258
130	0x3bf17206	0.007368329
131	0x3f4aabb4	0.7916825
132	0xbe48877e	-0.19582936
133	0xbe136c0c	-0.14396685
134	0x3def4008	0.11682135
135	0x3da7aaa4	0.08186844
136	0xbd6c4515	-0.05768307
137	0xbe58bd88	-0.2116605
138	0xbb8e5ad0	-0.004344322
139	0x3e9a9ef0	0.30199385
140	0xbe2c424a	-0.16822162
141	0xbd1cd7b2	-0.03829164
142	0x3b18b555	0.0023301442
143	0x3e864546	0.26224726
144	0xbe851664	-0.25993645
145	0xbe32630e	-0.17420599
146	0xbd7d52d8	-0.061846584
147	0xbe328765	-0.17434461
148	0x3d91f258	0.071263015
149	0x3e9e9800	0.30975342
150	0xbd5dcdf1	-0.05415148
151	0x3dc35ad9	0.09538812
152	0x3dfb4d9c	0.12270662
153	0xbe2ff68e	-0.17183897
154	0xbce04730	-0.027377695
155	0xbeb9546b	-0.36197218
156	0x3e09bb32	0.13450316
157	0x3c06fe88	0.008239396
158	0xbeb9c9f7	-0.362869
159	0x3df5b5c0	0.11997557
160	0x3e4cbeda	0.19994679
161	0x3e7677ae	0.24069092
162	0x3e0eae36	0.13933644
163	0xbd0a71e1	-0.03380001
164	0xbd14176d	-0.036155153
165	0x3e6e4ede	0.23272273
166	0x3b9103d5	0.0044255056
167	0xbdb605cf	-0.08887827
168	0x3f21921c	0.6311357
169	0xbe983e0b	-0.29734835
170	0xbe0e9087	-0.1392232
171	0xbf170aa5	-0.5900062
172	0xbe96a4dd	-0.29422656
173	0xbf6c30a2	-0.9226171
174	0x3f046cb3	0.5172836
175	0xbf00ef36	-0.50365007
176	0x3e2cd23f	0.16877078
177	0xbe839c71	-0.25705293
178	0xbdbc76c5	-0.09202341
179	0x3edfce7f	0.43712232
180	0xbec5f1c4	-0.38661015
181	0x3dfed655	0.12443224
182	0x3ef0fcbe	0.47067827
183	0xbc17723a	-0.009243542
184	0xbf339f7e	-0.7016524
185	0xbe6f8a2e	-0.23392555
186	0x3d514c32	0.051098056
187	0x3ebc4805	0.36773697
188	0x3e453c3f	0.19261263
189	0xbdac9767	-0.08427315
190	0xbe8d4343	-0.2759038
191	0x3e7e2a41	0.24820806
192	0x3dca5488	0.09879404
193	0xbe294414	-0.16529876
194	0x3d7d14b9	0.06178734
195	0x3dc87e63	0.09789731
196	0xbde350e9	-0.11099417
197	0xbe98c359	-0.29836538
198	0x3db69a5f	0.08916163
199	0xba14f5a6	-0.00056823564
200	0x3e503233	0.2033165
201	0xbe84c697	-0.25932762
202	0xbbe21bf0	-0.006900303
203	0xbe34038c	-0.17579478
204	0xbd78a95d	-0.060708392
205	0x3e617b2b	0.22019641
206	0x3e0f20ea	0.139774
207	0x3d29266e	0.041296415
208	0xbd255654	-0.040365532
209	0x3d7372cc	0.05943565
210	0x3e13162e	0.1436393
211	0xbdaee6cf	-0.08540117
212	0x3e65fd4c	0.22459906
213	0xbdaafd35	-0.08349077
214	0xbe55e225	-0.20887049
215	0x3d750746	0.05982139
216	0xbd123a7e	-0.035700314
217	0xbe952175	-0.29127088
218	0xbe8a374c	-0.26995313
219	0xbf1bccd2	-0.60859406
220	0xbe5786ff	-0.2104759
221	0xbf043d1f	-0.51655763
222	0x3e92ffee	0.28710884
223	0xbebb97e6	-0.36639327
224	0xbc5e58da	-0.013570989
225	0xbd69c400	-0.057071686
226	0xbca4149b	-0.020029357
227	0x3c64bfde	0.01396176
228	0x3d8ac543	0.06775906
229	0x3e9c695f	0.30549142
230	0xbdc495d3	-0.09598889
231	0x3cc2b0d1	0.023765953
232	0x3e1f5c2c	0.15562505
233	0x3db55552	0.08854164
234	0x3eb2d6c3	0.34929475
235	0xbb5b085f	-0.0033421738
236	0xbd8eb160	-0.06967425
237	0x3e584f12	0.21123913
238	0x3d98a8c0	0.074540615
239	0xbd265b2e	-0.0406143
240	0xbe99ac85	-0.30014434
241	0xbe4a688b	-0.19766442
242	0x3df71fc2	0.12066604
243	0xbe9f5211	-0.311173
244	0xbe10d8db	-0.14145224
245	0x3e5ccf6f	0.21563505
246	0xbe0b5390	-0.13606095
247	0xbecfac52	-0.40561157
248	0x3d0d9bed	0.03457253
249	0x3d4a6cdb	0.04942022
250	0x3e8cfcf5	0.2753674
251	0xbe3228ec	-0.17398423
252	0xbd00cd8e	-0.031446032
253	0x3e4ed1ef	0.20197271
254	0xbe904f53	-0.2818552
255	0x3e57956f	0.21053098

observable_net.2.bias f4 [12]
0	0xbd96a0f1	-0.07354916
1	0xbd01174e	-0.031516366
2	0xbeeb5b42	-0.45968062
3	0x3e445156	0.19171652
4	0xbd0a2cd7	-0.03373417
5	0xbf2d1d1b	-0.67622536
6	0xbd689349	-0.056781087
7	0xbe1d10f8	-0.15338504
8	0x3e3b0637	0.1826409
9	0x3eb46d50	0.3523965
10	0x3eb854a5	0.3600208
11	0xbf6f4100	-0.9345856

recovery_net.0.weight f4 [24, 12]
0	0xbbc94351	-0.006142058
1	0x3e757d7b	0.23973648
2	0x3f31f6b0	0.6951704
3	0x3d844769	0.06458933
4	0xbf93842a	-1.1524708
5	0xbd283c62	-0.04107321
6	0xbfa219a3	-1.2664074
7	0x3ee0cab2	0.43904644
8	0x3f035586	0.51302373
9	0x3d9a065d	0.07520745
10	0x3ec064aa	0.375768
11	0xbd4768b2	-0.04868383
12	0x3f809fc3	1.0048755
13	0xbd9df95c	-0.07713577
14	0x3e399c0a	0.1812593
15	0x3e49a4e5	0.19691809
16	0xbfdd06b8	-1.7267675
17	0x3e973989	0.29536083
18	0x3c8bc778	0.017062888
19	0x3e8d60a7	0.27612802
20	0x3e483f02	0.19555286
21	0x3f087066	0.53296506
22	0xbebb06c6	-0.36528605
23	0xbd9a4b62	-0.075339094
24	0x3f0341d0	0.51272297
25	0xbe05cab8	-0.13065612
26	0x3e92cdf3	0.28672752
27	0xbf04798f	-0.51747984
28	0x3e820e98	0.2540176
29	0x3e949374	0.29018748
30	0x3df2d2ca	0.11856611
31	0xbeefd0c2	-0.46838957
32	0x3f1146bb	0.5674855
33	0x3e1f8527	0.15578137
34	0x3ed27b15	0.4110953
35	0x3f4ddfb2	0.80419457
36	0x3df81171	0.12112702
37	0xbf74e1f0	-0.95657253
38	0xbf311cf9	-0.69184834
39	0x3ef266ff	0.47344205
40	0xbf8c9f3f	-1.0986098
41	0x3eee61fa	0.46559125
42	0xbf343313	-0.70390433
43	0x3e2a2855	0.16616948
44	0x3ef1a1d5	0.4719378
45	0x3f2c7ce6	0.6737808
46	0xbe929c27	-0.2863476
47	0x3dce3e0d	0.10070429
48	0xbeefb2e1	-0.4681616
49	0xbd4809fc	-0.048837647
50	0xbee2fb24	-0.4433223
51	0xbe580b71	-0.21098115
52	0xbe98165f	-0.29704568
53	0xbe0e38df	-0.13888882
54	0x3ee5cd43	0.44883165
55	0x3f09582b	0.5365016
56	0x3ee82e70	0.4534793
57	0xbf2ad466	-0.66730344
58	0x3e2aab53	0.16666918
59	0xbe499018	-0.19683874
60	0x3ec3db4c	0.38253248
61	0xbdf3111c	-0.11868498
62	0x3f518ebd	0.81858426
63	0xbeca5f25	-0.39525715
64	0xbfe710a7	-1.8051957
65	0x3f093f94	0.5361264
66	0x3e1a3d41	0.15062429
67	0x3f08bd75	0.5341409
68	0xbc80303e	-0.015648004
69	0xbefbadcd	-0.49156037
70	0x3ed66944	0.41877186
71	0xbd5de800	-0.05417633
72	0xbf4fc8be	-0.81165683
73	0x3ebb284a	0.36554176
74	0xbf85238d	-1.0401474
75	0x3ed7d0e4	0.42151558
76	0xbea3ebfb	-0.32015976
77	0xbee4292c	-0.44562662
78	0x3f97f9e4	1.1873136
79	0x3e6be236	0.23035511
80	0x3e685c58	0.22691476
81	0xbe7fd4d2	-0.24983528
82	0xbf177e32	-0.59176934
83	0x3f965671	1.174513
84	0xbf507f77	-0.81444496
85	0xbea67c53	-0.32516727
86	0xbe3b4a08	-0.1828996
87	0xbdd959a4	-0.10612801
88	0xbf396d2b	-0.724322
89	0x3f188061	0.5957089
90	0xbfb2f53b	-1.3981088
91	0x3cb88017	0.022522015
92	0xbf31d0dc	-0.6945932
93	0x3d24ef04	0.040267006
94	0xbe4d9566	-0.20076522
95	0x3eb84222	0.35987955
96	0xbeafa6eb	-0.34307036
97	0x3e897f70	0.2685504
98	0xbbc6aa55	-0.0060627856
99	0x3db7532b	0.0895141
100	0x40008e13	2.0086715
101	0x3e2feb77	0.17179666
102	0x3d020be5	0.031749625
103	0xbf0a60aa	-0.5405375
104	0xbfaf2651	-1.3683568
105	0xbf4ce6c1	-0.800396
106	0x3d5b4ddd	0.053541053
107	0xbe4a32e1	-0.19745971
108	0x3e92ec73	0.2869602
109	0xbe853038	-0.2601335
110	0xbf889de7	-1.0673188
111	0x3d9b7375	0.07590381
112	0xbfb0b72a	-1.3805897
113	0xbde20235	-0.11035577
114	0xbdfef0d8	-0.12448281
115	0x3e215d81	0.15758325
116	0x3f1d1ea8	0.613749
117	0x3f94f300	1.1636658
118	0xbe1d2ad8	-0.15348375
119	0x3ee5c707	0.44878408
120	0xbf50aeff	-0.8151702
121	0x3e2ed436	0.1707314
122	0xbf5e6037	-0.8686556
123	0xbda59e92	-0.080868855
124	0x3e86495c	0.26227844
125	0x3bff3761	0.007788584
126	0x3f207ddd	0.6269205
127	0x3ef34d7f	0.47520062
128	0x3f4c7b7c	0.7987592
129	0x3e92b2a1	0.28651908
130	0xbcbd433b	-0.023103347
131	0x3f19bbf4	0.6005242
132	0xbf3b6de3	-0.7321455
133	0x3f9cda6b	1.2254156
134	0xbe93c026	-0.28857535
135	0x3f584118	0.84474325
136	0xbe7e70c2	-0.24847701
137	0xbf326b54	-0.6969502
138	0x4019795e	2.3980327
139	0x3e1491db	0.14508764
140	0xbd8316b0	-0.06400812
141	0x3f1299af	0.5726575
142	0xbc9d755b	-0.019220999
143	0x3df279ff	0.11839675
144	0xbe56562e	-0.20931312
145	0xbe9de5fa	-0.3083952
146	0x3edc1265	0.42982784
147	0xbe44ae15	-0.19207032
148	0xbebeee04	-0.37290967
149	0x3ea861b6	0.32887048
150	0xbf835518	-1.0260344
151	0xbf523e7d	-0.821266
152	0x3e056201	0.13025667
153	0x3dad3b7f	0.084586136
154	0x3ea6a4d4	0.3254763
155	0xbf11fc4e	-0.5702561
156	0x3f36d233	0.7141449
157	0x3c0ef26c	0.00872479
158	0x3f0128e3	0.50453013
159	0xbf8fbc96	-1.1229427
160	0xbe4e00bc	-0.20117468
161	0xbee2a15f	-0.4426374
162	0xbf4bae89	-0.79563195
163	0xbe900a0c	-0.28132665
164	0x3ebf2601	0.37333682
165	0x3ecfa9a6	0.4055912
166	0xbfa2b78e	-1.2712266
167	0xbf219b49	-0.6312757
168	0xbc9b4d45	-0.018957743
169	0x3fcbed40	1.5931778
170	0xbe033c49	-0.12815966
171	0x3f976bd2	1.1829779
172	0x3e8e872c	0.27837503
173	0xbe6f3682	-0.23360637
174	0x3fc2cdc9	1.5219051
175	0x3f173f61	0.59081084
176	0xbe5fdd1f	-0.21861695
177	0x3dd466a4	0.1037114
178	0x3fb15be4	1.3856168
179	0x3f474d88	0.7785268
180	0x3cfd53d1	0.030923756
181	0xbdea1bda	-0.114310935
182	0x3f1246d2	0.57139313
183	0xbf38cf5f	-0.72191423
184	0xbcd1119a	-0.025521088
185	0x3f08a1aa	0.5337168
186	0xbf4509ac	-0.76967883
187	0x3e93afd8	0.28845096
188	0xbf6aceda	-0.9172188
189	0x3f9ff8de	1.2497823
190	0xbef5dfed	-0.48022404
191	0xbe79bb62	-0.24387887
192	0x3f2a71e1	0.66580015
193	0x3e3f5813	0.18685941
194	0xbebc1f1b	-0.36742482
195	0x3e98cc02	0.29843146
196	0xbe9dabe5	-0.30795208
197	0xbd60e3d1	-0.054904763
198	0x3f0ebc6f	0.55756277
199	0x3f554745	0.83311874
200	0x3ee45246	0.4459402
201	0xbe6b20d8	-0.22961748
202	0x3fe08a02	1.7542117
203	0x3e41e11d	0.1893353
204	0x3dc43b24	0.09581593
205	0xbf03f970	-0.51552486
206	0x3f13ec87	0.5778279
207	0x3f274053	0.65332526
208	0x3e37faf0	0.17966819
209	0x3f3f5491	0.74738413
210	0xbf0f5116	-0.559831
211	0xbe296381	-0.16541864
212	0x3ecf19c3	0.40449342
213	0x3f531a6b	0.82462186
214	0xbdd17462	-0.102272764
215	0xbf4847b2	-0.782344
216	0x3f6c4711	0.9229594
217	0x3f3b64e3	0.73200816
218	0xbf6138c6	-0.87977254
219	0x3f034b03	0.51286334
220	0x3ebeb913	0.37250575
221	0xbee8caf8	-0.45467353
222	0x3f0192de	0.50614727
223	0xbeb5b370	-0.35488462
224	0x3d12dc53	0.03585465
225	0xbebf3061	-0.37341598
226	0xbe7d5e05	-0.24742897
227	0x3e222188	0.15833104
228	0x3e5c2861	0.21499778
229	0x3f0a8d95	0.5412229
230	0xbdee165b	-0.11625358
231	0xbe7fc0a2	-0.24975827
232	0x3f61b216	0.8816236
233	0x3f83b9a3	1.0291027
234	0x3c720288	0.014771111
235	0xbe70123d	-0.23444457
236	0xbf865e5c	-1.0497546
237	0xbd737ee6	-0.05944719
238	0xbdfe02a8	-0.124028504
239	0xbe8581c0	-0.26075554
240	0x3de6b5ce	0.11265145
241	0xbf1215db	-0.570646
242	0x3ec46bb3	0.38363418
243	0xbea50b13	-0.3223501
244	0x3eaa4e5e	0.33262914
245	0x3e97e081	0.2966347
246	0xbf4a0430	-0.7891264
247	0xbed53612	-0.41642815
248	0x3f3114bf	0.6917228
249	0xbe7a52ba	-0.2444562
250	0x3d8b67aa	0.06806882
251	0x3ec8b75f	0.392024
252	0x3e8e5b59	0.27804068
253	0xbf30ca35	-0.69058543
254	0x3efc0caf	0.49228427
255	0xbe9eaccc	-0.3099121

recovery_net.0.bias f4 [24]
0	0xbf82a701	-1.0207216
1	0x3c841f7e	0.016128298
2	0x3e5762de	0.21033809
3	0xbe4f9fe3	-0.20275836
4	0xbe0230b8	-0.12713897
5	0xbfff8d58	-1.996501
6	0x3f3228f0	0.69593716
7	0xbefd34a9	-0.4945424
8	0x3f1fbdfd	0.62399274
9	0x3e0815a3	0.13289504
10	0x3f6cd698	0.92514944
11	0xbd5db9e1	-0.054132346
12	0x3e424e1e	0.18975112
13	0xbef423cf	-0.4768357
14	0xbd0acdce	-0.033887677
15	0x3f3a42c1	0.7275811
16	0xbe201eca	-0.15636745
17	0x3dea1ffd	0.114318825
18	0x3e610bea	0.21977201
19	0xbdf9229c	-0.12164804
20	0x3ec0965b	0.37614712
21	0x3e664b39	0.22489633
22	0xbd970606	-0.07374196
23	0x3e8c0fe7	0.27355883

recovery_net.2.weight f4 [3, 24]
0	0xbeced3f7	-0.4039609
1	0xbb3fe279	-0.0029279275
2	0xbe8387a7	-0.25689432
3	0xbe871189	-0.26380566
4	0xbf07bfa6	-0.5302681
5	0xbea78225	-0.3271648
6	0x3d78e485	0.06076481
7	0xbe03c5ce	-0.12868425
8	0xbde55d32	-0.11199416
9	0xbef759ec	-0.48310792
10	0xbe0515b6	-0.12996563
11	0x3e9944ef	0.29935405
12	0x3d9406c7	0.07227855
13	0x3f225cf7	0.63423103
14	0x3f3b8e2b	0.73263806
15	0x3ee6d470	0.45083952
16	0x3dc36b49	0.095419474
17	0x3ef66690	0.48125124
18	0xbdc54ae9	-0.096334286
19	0x3df0687c	0.11738679
20	0x3e3b1061	0.18267967
21	0x3e3b06bd	0.18264289
22	0xbf2e3ed4	-0.6806462
23	0x3e5fa26a	0.218393
24	0xbf8d9117	-1.1059903
25	0xbe776302	-0.24158862
26	0x3eff2002	0.49829108
27	0xbe2ef917	-0.17087208
28	0x3c9eff17	0.019408746
29	0xc0425ac1	-3.0367892
30	0xbf84b295	-1.0366999
31	0x3f57245a	0.84039843
32	0xbedea9ad	-0.43488827
33	0xbf3f5465	-0.7473815
34	0xbee4e66b	-0.44707045
35	0x3cce7535	0.025202373
36	0x3f2b4518	0.66902304
37	0xbeafe966	-0.34357756
38	0x3f8626e0	1.0480614
39	0x3c163a96	0.009169241
40	0x3f296dda	0.66183245
41	0x3e0aa9dc	0.13541359
42	0xbf531680	-0.8245621
43	0x3f04eee0	0.51926994
44	0x3f2dddda	0.67916644
45	0x3e5093f3	0.20368938
46	0xbd7f61e1	-0.062349204
47	0x3f22a453	0.6353199
48	0xbfa22536	-1.2667606
49	0x3f6415db	0.8909585
50	0x3df05c60	0.11736369
51	0x3f856e86	1.0424354
52	0xbf7176b1	-0.94321734
53	0x3f27d3a1	0.65557295
54	0x3e762ee4	0.24041325
55	0x3e3f235d	0.18665834
56	0xbfcb930a	-1.5904248
57	0x3d2f04d1	0.042729203
58	0x3f21d240	0.6321144
59	0xbf8b1aff	-1.0867614
60	0x3f08ccd0	0.5343752
61	0x3e090791	0.13381793
62	0xbeae6384	-0.340603
63	0x3ee216e9	0.44158104
64	0xbf30b26e	-0.6902226
65	0x3e279941	0.16367055
66	0x3e87c850	0.26520014
67	0xbe0e6c69	-0.13908543
68	0x3ecf91a8	0.40540814
69	0x3e4e53b1	0.20149113
70	0x3f357892	0.708871
71	0x3f1d398a	0.6141592

recovery_net.2.bias f4 [3]
0	0xbdc5061b	-0.09620305
1	0x3ea6f721	0.3261042
2	0xbcf757d2	-0.030193243
